{"format": "graph-model", "generatedBy": "2.21.0", "convertedBy": "TensorFlow.js Converter v4.22.0", "signature": {"inputs": {"input_layer": {"name": "input_layer:0", "dtype": "DT_FLOAT", "tensorShape": {"dim": [{"size": "-1"}, {"size": "224"}, {"size": "224"}, {"size": "3"}]}}}, "outputs": {"output_0": {"name": "Identity:0", "dtype": "DT_FLOAT", "tensorShape": {"dim": [{"size": "-1"}, {"size": "151"}]}}}}, "modelTopology": {"node": [{"name": "StatefulPartitionedCall/inference_model_1/mobilenetv2_1.00_224_1/block_15_project_BN_1/batchnorm/sub", "op": "Const", "attr": {"dtype": {"type": "DT_FLOAT"}, "value": {"tensor": {"dtype": "DT_FLOAT", "tensorShape": {"dim": [{"size": "160"}]}}}}}, {"name": "StatefulPartitionedCall/inference_model_1/mobilenetv2_1.00_224_1/block_14_project_BN_1/batchnorm/sub", "op": "Const", "attr": {"dtype": {"type": "DT_FLOAT"}, "value": {"tensor": {"dtype": "DT_FLOAT", "tensorShape": {"dim": [{"size": "160"}]}}}}}, {"name": "StatefulPartitionedCall/inference_model_1/mobilenetv2_1.00_224_1/block_12_project_BN_1/batchnorm/sub", "op": "Const", "attr": {"dtype": {"type": "DT_FLOAT"}, "value": {"tensor": {"dtype": "DT_FLOAT", "tensorShape": {"dim": [{"size": "96"}]}}}}}, {"name": "StatefulPartitionedCall/inference_model_1/mobilenetv2_1.00_224_1/block_11_project_BN_1/batchnorm/sub", "op": "Const", "attr": {"dtype": {"type": "DT_FLOAT"}, "value": {"tensor": {"dtype": "DT_FLOAT", "tensorShape": {"dim": [{"size": "96"}]}}}}}, {"name": "StatefulPartitionedCall/inference_model_1/mobilenetv2_1.00_224_1/block_9_project_BN_1/batchnorm/sub", "op": "Const", "attr": {"dtype": {"type": "DT_FLOAT"}, "value": {"tensor": {"dtype": "DT_FLOAT", "tensorShape": {"dim": [{"size": "64"}]}}}}}, {"name": "StatefulPartitionedCall/inference_model_1/mobilenetv2_1.00_224_1/block_8_project_BN_1/batchnorm/sub", "op": "Const", "attr": {"dtype": {"type": "DT_FLOAT"}, "value": {"tensor": {"dtype": "DT_FLOAT", "tensorShape": {"dim": [{"size": "64"}]}}}}}, {"name": "StatefulPartitionedCall/inference_model_1/mobilenetv2_1.00_224_1/block_7_project_BN_1/batchnorm/sub", "op": "Const", "attr": {"dtype": {"type": "DT_FLOAT"}, "value": {"tensor": {"dtype": "DT_FLOAT", "tensorShape": {"dim": [{"size": "64"}]}}}}}, {"name": "StatefulPartitionedCall/inference_model_1/mobilenetv2_1.00_224_1/block_5_project_BN_1/batchnorm/sub", "op": "Const", "attr": {"dtype": {"type": "DT_FLOAT"}, "value": {"tensor": {"dtype": "DT_FLOAT", "tensorShape": {"dim": [{"size": "32"}]}}}}}, {"name": "StatefulPartitionedCall/inference_model_1/mobilenetv2_1.00_224_1/block_4_project_BN_1/batchnorm/sub", "op": "Const", "attr": {"dtype": {"type": "DT_FLOAT"}, "value": {"tensor": {"dtype": "DT_FLOAT", "tensorShape": {"dim": [{"size": "32"}]}}}}}, {"name": "StatefulPartitionedCall/inference_model_1/mobilenetv2_1.00_224_1/block_2_project_BN_1/batchnorm/sub", "op": "Const", "attr": {"dtype": {"type": "DT_FLOAT"}, "value": {"tensor": {"dtype": "DT_FLOAT", "tensorShape": {"dim": [{"size": "24"}]}}}}}, {"name": "StatefulPartitionedCall/inference_model_1/rescaling_1/Cast/x", "op": "Const", "attr": {"dtype": {"type": "DT_FLOAT"}, "value": {"tensor": {"dtype": "DT_FLOAT", "tensorShape": {}}}}}, {"name": "StatefulPartitionedCall/inference_model_1/rescaling_1/Cast_1/x", "op": "Const", "attr": {"dtype": {"type": "DT_FLOAT"}, "value": {"tensor": {"dtype": "DT_FLOAT", "tensorShape": {}}}}}, {"name": "StatefulPartitionedCall/inference_model_1/mobilenetv2_1.00_224_1/Conv1_1/convolution/merged_input", "op": "Const", "attr": {"dtype": {"type": "DT_FLOAT"}, "value": {"tensor": {"dtype": "DT_FLOAT", "tensorShape": {"dim": [{"size": "3"}, {"size": "3"}, {"size": "3"}, {"size": "32"}]}}}}}, {"name": "StatefulPartitionedCall/inference_model_1/mobilenetv2_1.00_224_1/bn_Conv1_1/batchnorm/sub", "op": "Const", "attr": {"dtype": {"type": "DT_FLOAT"}, "value": {"tensor": {"dtype": "DT_FLOAT", "tensorShape": {"dim": [{"size": "32"}]}}}}}, {"name": "StatefulPartitionedCall/inference_model_1/mobilenetv2_1.00_224_1/expanded_conv_depthwise_1/depthwise/ReadVariableOp", "op": "Const", "attr": {"dtype": {"type": "DT_FLOAT"}, "value": {"tensor": {"dtype": "DT_FLOAT", "tensorShape": {"dim": [{"size": "3"}, {"size": "3"}, {"size": "32"}, {"size": "1"}]}}}}}, {"name": "StatefulPartitionedCall/inference_model_1/mobilenetv2_1.00_224_1/expanded_conv_depthwise_BN_1/batchnorm/mul", "op": "Const", "attr": {"dtype": {"type": "DT_FLOAT"}, "value": {"tensor": {"dtype": "DT_FLOAT", "tensorShape": {"dim": [{"size": "32"}]}}}}}, {"name": "StatefulPartitionedCall/inference_model_1/mobilenetv2_1.00_224_1/expanded_conv_depthwise_BN_1/batchnorm/sub", "op": "Const", "attr": {"dtype": {"type": "DT_FLOAT"}, "value": {"tensor": {"dtype": "DT_FLOAT", "tensorShape": {"dim": [{"size": "32"}]}}}}}, {"name": "StatefulPartitionedCall/inference_model_1/mobilenetv2_1.00_224_1/expanded_conv_project_1/convolution/merged_input", "op": "Const", "attr": {"dtype": {"type": "DT_FLOAT"}, "value": {"tensor": {"dtype": "DT_FLOAT", "tensorShape": {"dim": [{"size": "1"}, {"size": "1"}, {"size": "32"}, {"size": "16"}]}}}}}, {"name": "StatefulPartitionedCall/inference_model_1/mobilenetv2_1.00_224_1/expanded_conv_project_BN_1/batchnorm/sub", "op": "Const", "attr": {"dtype": {"type": "DT_FLOAT"}, "value": {"tensor": {"dtype": "DT_FLOAT", "tensorShape": {"dim": [{"size": "16"}]}}}}}, {"name": "StatefulPartitionedCall/inference_model_1/mobilenetv2_1.00_224_1/block_1_expand_1/convolution/merged_input", "op": "Const", "attr": {"dtype": {"type": "DT_FLOAT"}, "value": {"tensor": {"dtype": "DT_FLOAT", "tensorShape": {"dim": [{"size": "1"}, {"size": "1"}, {"size": "16"}, {"size": "96"}]}}}}}, {"name": "StatefulPartitionedCall/inference_model_1/mobilenetv2_1.00_224_1/block_1_expand_BN_1/batchnorm/sub", "op": "Const", "attr": {"dtype": {"type": "DT_FLOAT"}, "value": {"tensor": {"dtype": "DT_FLOAT", "tensorShape": {"dim": [{"size": "96"}]}}}}}, {"name": "StatefulPartitionedCall/inference_model_1/mobilenetv2_1.00_224_1/block_1_pad_1/Const", "op": "Const", "attr": {"dtype": {"type": "DT_INT32"}, "value": {"tensor": {"dtype": "DT_INT32", "tensorShape": {"dim": [{"size": "4"}, {"size": "2"}]}}}}}, {"name": "StatefulPartitionedCall/inference_model_1/mobilenetv2_1.00_224_1/block_1_depthwise_1/depthwise/ReadVariableOp", "op": "Const", "attr": {"dtype": {"type": "DT_FLOAT"}, "value": {"tensor": {"dtype": "DT_FLOAT", "tensorShape": {"dim": [{"size": "3"}, {"size": "3"}, {"size": "96"}, {"size": "1"}]}}}}}, {"name": "StatefulPartitionedCall/inference_model_1/mobilenetv2_1.00_224_1/block_1_depthwise_BN_1/batchnorm/mul", "op": "Const", "attr": {"dtype": {"type": "DT_FLOAT"}, "value": {"tensor": {"dtype": "DT_FLOAT", "tensorShape": {"dim": [{"size": "96"}]}}}}}, {"name": "StatefulPartitionedCall/inference_model_1/mobilenetv2_1.00_224_1/block_1_depthwise_BN_1/batchnorm/sub", "op": "Const", "attr": {"dtype": {"type": "DT_FLOAT"}, "value": {"tensor": {"dtype": "DT_FLOAT", "tensorShape": {"dim": [{"size": "96"}]}}}}}, {"name": "StatefulPartitionedCall/inference_model_1/mobilenetv2_1.00_224_1/block_1_project_1/convolution/merged_input", "op": "Const", "attr": {"dtype": {"type": "DT_FLOAT"}, "value": {"tensor": {"dtype": "DT_FLOAT", "tensorShape": {"dim": [{"size": "1"}, {"size": "1"}, {"size": "96"}, {"size": "24"}]}}}}}, {"name": "StatefulPartitionedCall/inference_model_1/mobilenetv2_1.00_224_1/block_1_project_BN_1/batchnorm/sub", "op": "Const", "attr": {"dtype": {"type": "DT_FLOAT"}, "value": {"tensor": {"dtype": "DT_FLOAT", "tensorShape": {"dim": [{"size": "24"}]}}}}}, {"name": "StatefulPartitionedCall/inference_model_1/mobilenetv2_1.00_224_1/block_2_expand_1/convolution/merged_input", "op": "Const", "attr": {"dtype": {"type": "DT_FLOAT"}, "value": {"tensor": {"dtype": "DT_FLOAT", "tensorShape": {"dim": [{"size": "1"}, {"size": "1"}, {"size": "24"}, {"size": "144"}]}}}}}, {"name": "StatefulPartitionedCall/inference_model_1/mobilenetv2_1.00_224_1/block_2_expand_BN_1/batchnorm/sub", "op": "Const", "attr": {"dtype": {"type": "DT_FLOAT"}, "value": {"tensor": {"dtype": "DT_FLOAT", "tensorShape": {"dim": [{"size": "144"}]}}}}}, {"name": "StatefulPartitionedCall/inference_model_1/mobilenetv2_1.00_224_1/block_2_depthwise_1/depthwise/ReadVariableOp", "op": "Const", "attr": {"dtype": {"type": "DT_FLOAT"}, "value": {"tensor": {"dtype": "DT_FLOAT", "tensorShape": {"dim": [{"size": "3"}, {"size": "3"}, {"size": "144"}, {"size": "1"}]}}}}}, {"name": "StatefulPartitionedCall/inference_model_1/mobilenetv2_1.00_224_1/block_2_depthwise_BN_1/batchnorm/mul", "op": "Const", "attr": {"dtype": {"type": "DT_FLOAT"}, "value": {"tensor": {"dtype": "DT_FLOAT", "tensorShape": {"dim": [{"size": "144"}]}}}}}, {"name": "StatefulPartitionedCall/inference_model_1/mobilenetv2_1.00_224_1/block_2_depthwise_BN_1/batchnorm/sub", "op": "Const", "attr": {"dtype": {"type": "DT_FLOAT"}, "value": {"tensor": {"dtype": "DT_FLOAT", "tensorShape": {"dim": [{"size": "144"}]}}}}}, {"name": "StatefulPartitionedCall/inference_model_1/mobilenetv2_1.00_224_1/block_2_project_1/convolution/merged_input", "op": "Const", "attr": {"dtype": {"type": "DT_FLOAT"}, "value": {"tensor": {"dtype": "DT_FLOAT", "tensorShape": {"dim": [{"size": "1"}, {"size": "1"}, {"size": "144"}, {"size": "24"}]}}}}}, {"name": "StatefulPartitionedCall/inference_model_1/mobilenetv2_1.00_224_1/block_3_expand_1/convolution/merged_input", "op": "Const", "attr": {"dtype": {"type": "DT_FLOAT"}, "value": {"tensor": {"dtype": "DT_FLOAT", "tensorShape": {"dim": [{"size": "1"}, {"size": "1"}, {"size": "24"}, {"size": "144"}]}}}}}, {"name": "StatefulPartitionedCall/inference_model_1/mobilenetv2_1.00_224_1/block_3_expand_BN_1/batchnorm/sub", "op": "Const", "attr": {"dtype": {"type": "DT_FLOAT"}, "value": {"tensor": {"dtype": "DT_FLOAT", "tensorShape": {"dim": [{"size": "144"}]}}}}}, {"name": "StatefulPartitionedCall/inference_model_1/mobilenetv2_1.00_224_1/block_3_pad_1/Const", "op": "Const", "attr": {"dtype": {"type": "DT_INT32"}, "value": {"tensor": {"dtype": "DT_INT32", "tensorShape": {"dim": [{"size": "4"}, {"size": "2"}]}}}}}, {"name": "StatefulPartitionedCall/inference_model_1/mobilenetv2_1.00_224_1/block_3_depthwise_1/depthwise/ReadVariableOp", "op": "Const", "attr": {"dtype": {"type": "DT_FLOAT"}, "value": {"tensor": {"dtype": "DT_FLOAT", "tensorShape": {"dim": [{"size": "3"}, {"size": "3"}, {"size": "144"}, {"size": "1"}]}}}}}, {"name": "StatefulPartitionedCall/inference_model_1/mobilenetv2_1.00_224_1/block_3_depthwise_BN_1/batchnorm/mul", "op": "Const", "attr": {"dtype": {"type": "DT_FLOAT"}, "value": {"tensor": {"dtype": "DT_FLOAT", "tensorShape": {"dim": [{"size": "144"}]}}}}}, {"name": "StatefulPartitionedCall/inference_model_1/mobilenetv2_1.00_224_1/block_3_depthwise_BN_1/batchnorm/sub", "op": "Const", "attr": {"dtype": {"type": "DT_FLOAT"}, "value": {"tensor": {"dtype": "DT_FLOAT", "tensorShape": {"dim": [{"size": "144"}]}}}}}, {"name": "StatefulPartitionedCall/inference_model_1/mobilenetv2_1.00_224_1/block_3_project_1/convolution/merged_input", "op": "Const", "attr": {"dtype": {"type": "DT_FLOAT"}, "value": {"tensor": {"dtype": "DT_FLOAT", "tensorShape": {"dim": [{"size": "1"}, {"size": "1"}, {"size": "144"}, {"size": "32"}]}}}}}, {"name": "StatefulPartitionedCall/inference_model_1/mobilenetv2_1.00_224_1/block_3_project_BN_1/batchnorm/sub", "op": "Const", "attr": {"dtype": {"type": "DT_FLOAT"}, "value": {"tensor": {"dtype": "DT_FLOAT", "tensorShape": {"dim": [{"size": "32"}]}}}}}, {"name": "StatefulPartitionedCall/inference_model_1/mobilenetv2_1.00_224_1/block_4_expand_1/convolution/merged_input", "op": "Const", "attr": {"dtype": {"type": "DT_FLOAT"}, "value": {"tensor": {"dtype": "DT_FLOAT", "tensorShape": {"dim": [{"size": "1"}, {"size": "1"}, {"size": "32"}, {"size": "192"}]}}}}}, {"name": "StatefulPartitionedCall/inference_model_1/mobilenetv2_1.00_224_1/block_4_expand_BN_1/batchnorm/sub", "op": "Const", "attr": {"dtype": {"type": "DT_FLOAT"}, "value": {"tensor": {"dtype": "DT_FLOAT", "tensorShape": {"dim": [{"size": "192"}]}}}}}, {"name": "StatefulPartitionedCall/inference_model_1/mobilenetv2_1.00_224_1/block_4_depthwise_1/depthwise/ReadVariableOp", "op": "Const", "attr": {"dtype": {"type": "DT_FLOAT"}, "value": {"tensor": {"dtype": "DT_FLOAT", "tensorShape": {"dim": [{"size": "3"}, {"size": "3"}, {"size": "192"}, {"size": "1"}]}}}}}, {"name": "StatefulPartitionedCall/inference_model_1/mobilenetv2_1.00_224_1/block_4_depthwise_BN_1/batchnorm/mul", "op": "Const", "attr": {"dtype": {"type": "DT_FLOAT"}, "value": {"tensor": {"dtype": "DT_FLOAT", "tensorShape": {"dim": [{"size": "192"}]}}}}}, {"name": "StatefulPartitionedCall/inference_model_1/mobilenetv2_1.00_224_1/block_4_depthwise_BN_1/batchnorm/sub", "op": "Const", "attr": {"dtype": {"type": "DT_FLOAT"}, "value": {"tensor": {"dtype": "DT_FLOAT", "tensorShape": {"dim": [{"size": "192"}]}}}}}, {"name": "StatefulPartitionedCall/inference_model_1/mobilenetv2_1.00_224_1/block_4_project_1/convolution/merged_input", "op": "Const", "attr": {"dtype": {"type": "DT_FLOAT"}, "value": {"tensor": {"dtype": "DT_FLOAT", "tensorShape": {"dim": [{"size": "1"}, {"size": "1"}, {"size": "192"}, {"size": "32"}]}}}}}, {"name": "StatefulPartitionedCall/inference_model_1/mobilenetv2_1.00_224_1/block_5_expand_1/convolution/merged_input", "op": "Const", "attr": {"dtype": {"type": "DT_FLOAT"}, "value": {"tensor": {"dtype": "DT_FLOAT", "tensorShape": {"dim": [{"size": "1"}, {"size": "1"}, {"size": "32"}, {"size": "192"}]}}}}}, {"name": "StatefulPartitionedCall/inference_model_1/mobilenetv2_1.00_224_1/block_5_expand_BN_1/batchnorm/sub", "op": "Const", "attr": {"dtype": {"type": "DT_FLOAT"}, "value": {"tensor": {"dtype": "DT_FLOAT", "tensorShape": {"dim": [{"size": "192"}]}}}}}, {"name": "StatefulPartitionedCall/inference_model_1/mobilenetv2_1.00_224_1/block_5_depthwise_1/depthwise/ReadVariableOp", "op": "Const", "attr": {"dtype": {"type": "DT_FLOAT"}, "value": {"tensor": {"dtype": "DT_FLOAT", "tensorShape": {"dim": [{"size": "3"}, {"size": "3"}, {"size": "192"}, {"size": "1"}]}}}}}, {"name": "StatefulPartitionedCall/inference_model_1/mobilenetv2_1.00_224_1/block_5_depthwise_BN_1/batchnorm/mul", "op": "Const", "attr": {"dtype": {"type": "DT_FLOAT"}, "value": {"tensor": {"dtype": "DT_FLOAT", "tensorShape": {"dim": [{"size": "192"}]}}}}}, {"name": "StatefulPartitionedCall/inference_model_1/mobilenetv2_1.00_224_1/block_5_depthwise_BN_1/batchnorm/sub", "op": "Const", "attr": {"dtype": {"type": "DT_FLOAT"}, "value": {"tensor": {"dtype": "DT_FLOAT", "tensorShape": {"dim": [{"size": "192"}]}}}}}, {"name": "StatefulPartitionedCall/inference_model_1/mobilenetv2_1.00_224_1/block_5_project_1/convolution/merged_input", "op": "Const", "attr": {"dtype": {"type": "DT_FLOAT"}, "value": {"tensor": {"dtype": "DT_FLOAT", "tensorShape": {"dim": [{"size": "1"}, {"size": "1"}, {"size": "192"}, {"size": "32"}]}}}}}, {"name": "StatefulPartitionedCall/inference_model_1/mobilenetv2_1.00_224_1/block_6_expand_1/convolution/merged_input", "op": "Const", "attr": {"dtype": {"type": "DT_FLOAT"}, "value": {"tensor": {"dtype": "DT_FLOAT", "tensorShape": {"dim": [{"size": "1"}, {"size": "1"}, {"size": "32"}, {"size": "192"}]}}}}}, {"name": "StatefulPartitionedCall/inference_model_1/mobilenetv2_1.00_224_1/block_6_expand_BN_1/batchnorm/sub", "op": "Const", "attr": {"dtype": {"type": "DT_FLOAT"}, "value": {"tensor": {"dtype": "DT_FLOAT", "tensorShape": {"dim": [{"size": "192"}]}}}}}, {"name": "StatefulPartitionedCall/inference_model_1/mobilenetv2_1.00_224_1/block_6_pad_1/Const", "op": "Const", "attr": {"dtype": {"type": "DT_INT32"}, "value": {"tensor": {"dtype": "DT_INT32", "tensorShape": {"dim": [{"size": "4"}, {"size": "2"}]}}}}}, {"name": "StatefulPartitionedCall/inference_model_1/mobilenetv2_1.00_224_1/block_6_depthwise_1/depthwise/ReadVariableOp", "op": "Const", "attr": {"dtype": {"type": "DT_FLOAT"}, "value": {"tensor": {"dtype": "DT_FLOAT", "tensorShape": {"dim": [{"size": "3"}, {"size": "3"}, {"size": "192"}, {"size": "1"}]}}}}}, {"name": "StatefulPartitionedCall/inference_model_1/mobilenetv2_1.00_224_1/block_6_depthwise_BN_1/batchnorm/mul", "op": "Const", "attr": {"dtype": {"type": "DT_FLOAT"}, "value": {"tensor": {"dtype": "DT_FLOAT", "tensorShape": {"dim": [{"size": "192"}]}}}}}, {"name": "StatefulPartitionedCall/inference_model_1/mobilenetv2_1.00_224_1/block_6_depthwise_BN_1/batchnorm/sub", "op": "Const", "attr": {"dtype": {"type": "DT_FLOAT"}, "value": {"tensor": {"dtype": "DT_FLOAT", "tensorShape": {"dim": [{"size": "192"}]}}}}}, {"name": "StatefulPartitionedCall/inference_model_1/mobilenetv2_1.00_224_1/block_6_project_1/convolution/merged_input", "op": "Const", "attr": {"dtype": {"type": "DT_FLOAT"}, "value": {"tensor": {"dtype": "DT_FLOAT", "tensorShape": {"dim": [{"size": "1"}, {"size": "1"}, {"size": "192"}, {"size": "64"}]}}}}}, {"name": "StatefulPartitionedCall/inference_model_1/mobilenetv2_1.00_224_1/block_6_project_BN_1/batchnorm/sub", "op": "Const", "attr": {"dtype": {"type": "DT_FLOAT"}, "value": {"tensor": {"dtype": "DT_FLOAT", "tensorShape": {"dim": [{"size": "64"}]}}}}}, {"name": "StatefulPartitionedCall/inference_model_1/mobilenetv2_1.00_224_1/block_7_expand_1/convolution/merged_input", "op": "Const", "attr": {"dtype": {"type": "DT_FLOAT"}, "value": {"tensor": {"dtype": "DT_FLOAT", "tensorShape": {"dim": [{"size": "1"}, {"size": "1"}, {"size": "64"}, {"size": "384"}]}}}}}, {"name": "StatefulPartitionedCall/inference_model_1/mobilenetv2_1.00_224_1/block_7_expand_BN_1/batchnorm/sub", "op": "Const", "attr": {"dtype": {"type": "DT_FLOAT"}, "value": {"tensor": {"dtype": "DT_FLOAT", "tensorShape": {"dim": [{"size": "384"}]}}}}}, {"name": "StatefulPartitionedCall/inference_model_1/mobilenetv2_1.00_224_1/block_7_depthwise_1/depthwise/ReadVariableOp", "op": "Const", "attr": {"dtype": {"type": "DT_FLOAT"}, "value": {"tensor": {"dtype": "DT_FLOAT", "tensorShape": {"dim": [{"size": "3"}, {"size": "3"}, {"size": "384"}, {"size": "1"}]}}}}}, {"name": "StatefulPartitionedCall/inference_model_1/mobilenetv2_1.00_224_1/block_7_depthwise_BN_1/batchnorm/mul", "op": "Const", "attr": {"dtype": {"type": "DT_FLOAT"}, "value": {"tensor": {"dtype": "DT_FLOAT", "tensorShape": {"dim": [{"size": "384"}]}}}}}, {"name": "StatefulPartitionedCall/inference_model_1/mobilenetv2_1.00_224_1/block_7_depthwise_BN_1/batchnorm/sub", "op": "Const", "attr": {"dtype": {"type": "DT_FLOAT"}, "value": {"tensor": {"dtype": "DT_FLOAT", "tensorShape": {"dim": [{"size": "384"}]}}}}}, {"name": "StatefulPartitionedCall/inference_model_1/mobilenetv2_1.00_224_1/block_7_project_1/convolution/merged_input", "op": "Const", "attr": {"dtype": {"type": "DT_FLOAT"}, "value": {"tensor": {"dtype": "DT_FLOAT", "tensorShape": {"dim": [{"size": "1"}, {"size": "1"}, {"size": "384"}, {"size": "64"}]}}}}}, {"name": "StatefulPartitionedCall/inference_model_1/mobilenetv2_1.00_224_1/block_8_expand_1/convolution/merged_input", "op": "Const", "attr": {"dtype": {"type": "DT_FLOAT"}, "value": {"tensor": {"dtype": "DT_FLOAT", "tensorShape": {"dim": [{"size": "1"}, {"size": "1"}, {"size": "64"}, {"size": "384"}]}}}}}, {"name": "StatefulPartitionedCall/inference_model_1/mobilenetv2_1.00_224_1/block_8_expand_BN_1/batchnorm/sub", "op": "Const", "attr": {"dtype": {"type": "DT_FLOAT"}, "value": {"tensor": {"dtype": "DT_FLOAT", "tensorShape": {"dim": [{"size": "384"}]}}}}}, {"name": "StatefulPartitionedCall/inference_model_1/mobilenetv2_1.00_224_1/block_8_depthwise_1/depthwise/ReadVariableOp", "op": "Const", "attr": {"dtype": {"type": "DT_FLOAT"}, "value": {"tensor": {"dtype": "DT_FLOAT", "tensorShape": {"dim": [{"size": "3"}, {"size": "3"}, {"size": "384"}, {"size": "1"}]}}}}}, {"name": "StatefulPartitionedCall/inference_model_1/mobilenetv2_1.00_224_1/block_8_depthwise_BN_1/batchnorm/mul", "op": "Const", "attr": {"dtype": {"type": "DT_FLOAT"}, "value": {"tensor": {"dtype": "DT_FLOAT", "tensorShape": {"dim": [{"size": "384"}]}}}}}, {"name": "StatefulPartitionedCall/inference_model_1/mobilenetv2_1.00_224_1/block_8_depthwise_BN_1/batchnorm/sub", "op": "Const", "attr": {"dtype": {"type": "DT_FLOAT"}, "value": {"tensor": {"dtype": "DT_FLOAT", "tensorShape": {"dim": [{"size": "384"}]}}}}}, {"name": "StatefulPartitionedCall/inference_model_1/mobilenetv2_1.00_224_1/block_8_project_1/convolution/merged_input", "op": "Const", "attr": {"dtype": {"type": "DT_FLOAT"}, "value": {"tensor": {"dtype": "DT_FLOAT", "tensorShape": {"dim": [{"size": "1"}, {"size": "1"}, {"size": "384"}, {"size": "64"}]}}}}}, {"name": "StatefulPartitionedCall/inference_model_1/mobilenetv2_1.00_224_1/block_9_expand_1/convolution/merged_input", "op": "Const", "attr": {"dtype": {"type": "DT_FLOAT"}, "value": {"tensor": {"dtype": "DT_FLOAT", "tensorShape": {"dim": [{"size": "1"}, {"size": "1"}, {"size": "64"}, {"size": "384"}]}}}}}, {"name": "StatefulPartitionedCall/inference_model_1/mobilenetv2_1.00_224_1/block_9_expand_BN_1/batchnorm/sub", "op": "Const", "attr": {"dtype": {"type": "DT_FLOAT"}, "value": {"tensor": {"dtype": "DT_FLOAT", "tensorShape": {"dim": [{"size": "384"}]}}}}}, {"name": "StatefulPartitionedCall/inference_model_1/mobilenetv2_1.00_224_1/block_9_depthwise_1/depthwise/ReadVariableOp", "op": "Const", "attr": {"dtype": {"type": "DT_FLOAT"}, "value": {"tensor": {"dtype": "DT_FLOAT", "tensorShape": {"dim": [{"size": "3"}, {"size": "3"}, {"size": "384"}, {"size": "1"}]}}}}}, {"name": "StatefulPartitionedCall/inference_model_1/mobilenetv2_1.00_224_1/block_9_depthwise_BN_1/batchnorm/mul", "op": "Const", "attr": {"dtype": {"type": "DT_FLOAT"}, "value": {"tensor": {"dtype": "DT_FLOAT", "tensorShape": {"dim": [{"size": "384"}]}}}}}, {"name": "StatefulPartitionedCall/inference_model_1/mobilenetv2_1.00_224_1/block_9_depthwise_BN_1/batchnorm/sub", "op": "Const", "attr": {"dtype": {"type": "DT_FLOAT"}, "value": {"tensor": {"dtype": "DT_FLOAT", "tensorShape": {"dim": [{"size": "384"}]}}}}}, {"name": "StatefulPartitionedCall/inference_model_1/mobilenetv2_1.00_224_1/block_9_project_1/convolution/merged_input", "op": "Const", "attr": {"dtype": {"type": "DT_FLOAT"}, "value": {"tensor": {"dtype": "DT_FLOAT", "tensorShape": {"dim": [{"size": "1"}, {"size": "1"}, {"size": "384"}, {"size": "64"}]}}}}}, {"name": "StatefulPartitionedCall/inference_model_1/mobilenetv2_1.00_224_1/block_10_expand_1/convolution/merged_input", "op": "Const", "attr": {"dtype": {"type": "DT_FLOAT"}, "value": {"tensor": {"dtype": "DT_FLOAT", "tensorShape": {"dim": [{"size": "1"}, {"size": "1"}, {"size": "64"}, {"size": "384"}]}}}}}, {"name": "StatefulPartitionedCall/inference_model_1/mobilenetv2_1.00_224_1/block_10_expand_BN_1/batchnorm/sub", "op": "Const", "attr": {"dtype": {"type": "DT_FLOAT"}, "value": {"tensor": {"dtype": "DT_FLOAT", "tensorShape": {"dim": [{"size": "384"}]}}}}}, {"name": "StatefulPartitionedCall/inference_model_1/mobilenetv2_1.00_224_1/block_10_depthwise_1/depthwise/ReadVariableOp", "op": "Const", "attr": {"dtype": {"type": "DT_FLOAT"}, "value": {"tensor": {"dtype": "DT_FLOAT", "tensorShape": {"dim": [{"size": "3"}, {"size": "3"}, {"size": "384"}, {"size": "1"}]}}}}}, {"name": "StatefulPartitionedCall/inference_model_1/mobilenetv2_1.00_224_1/block_10_depthwise_BN_1/batchnorm/mul", "op": "Const", "attr": {"dtype": {"type": "DT_FLOAT"}, "value": {"tensor": {"dtype": "DT_FLOAT", "tensorShape": {"dim": [{"size": "384"}]}}}}}, {"name": "StatefulPartitionedCall/inference_model_1/mobilenetv2_1.00_224_1/block_10_depthwise_BN_1/batchnorm/sub", "op": "Const", "attr": {"dtype": {"type": "DT_FLOAT"}, "value": {"tensor": {"dtype": "DT_FLOAT", "tensorShape": {"dim": [{"size": "384"}]}}}}}, {"name": "StatefulPartitionedCall/inference_model_1/mobilenetv2_1.00_224_1/block_10_project_1/convolution/merged_input", "op": "Const", "attr": {"dtype": {"type": "DT_FLOAT"}, "value": {"tensor": {"dtype": "DT_FLOAT", "tensorShape": {"dim": [{"size": "1"}, {"size": "1"}, {"size": "384"}, {"size": "96"}]}}}}}, {"name": "StatefulPartitionedCall/inference_model_1/mobilenetv2_1.00_224_1/block_10_project_BN_1/batchnorm/sub", "op": "Const", "attr": {"dtype": {"type": "DT_FLOAT"}, "value": {"tensor": {"dtype": "DT_FLOAT", "tensorShape": {"dim": [{"size": "96"}]}}}}}, {"name": "StatefulPartitionedCall/inference_model_1/mobilenetv2_1.00_224_1/block_11_expand_1/convolution/merged_input", "op": "Const", "attr": {"dtype": {"type": "DT_FLOAT"}, "value": {"tensor": {"dtype": "DT_FLOAT", "tensorShape": {"dim": [{"size": "1"}, {"size": "1"}, {"size": "96"}, {"size": "576"}]}}}}}, {"name": "StatefulPartitionedCall/inference_model_1/mobilenetv2_1.00_224_1/block_11_expand_BN_1/batchnorm/sub", "op": "Const", "attr": {"dtype": {"type": "DT_FLOAT"}, "value": {"tensor": {"dtype": "DT_FLOAT", "tensorShape": {"dim": [{"size": "576"}]}}}}}, {"name": "StatefulPartitionedCall/inference_model_1/mobilenetv2_1.00_224_1/block_11_depthwise_1/depthwise/ReadVariableOp", "op": "Const", "attr": {"dtype": {"type": "DT_FLOAT"}, "value": {"tensor": {"dtype": "DT_FLOAT", "tensorShape": {"dim": [{"size": "3"}, {"size": "3"}, {"size": "576"}, {"size": "1"}]}}}}}, {"name": "StatefulPartitionedCall/inference_model_1/mobilenetv2_1.00_224_1/block_11_depthwise_BN_1/batchnorm/mul", "op": "Const", "attr": {"dtype": {"type": "DT_FLOAT"}, "value": {"tensor": {"dtype": "DT_FLOAT", "tensorShape": {"dim": [{"size": "576"}]}}}}}, {"name": "StatefulPartitionedCall/inference_model_1/mobilenetv2_1.00_224_1/block_11_depthwise_BN_1/batchnorm/sub", "op": "Const", "attr": {"dtype": {"type": "DT_FLOAT"}, "value": {"tensor": {"dtype": "DT_FLOAT", "tensorShape": {"dim": [{"size": "576"}]}}}}}, {"name": "StatefulPartitionedCall/inference_model_1/mobilenetv2_1.00_224_1/block_11_project_1/convolution/merged_input", "op": "Const", "attr": {"dtype": {"type": "DT_FLOAT"}, "value": {"tensor": {"dtype": "DT_FLOAT", "tensorShape": {"dim": [{"size": "1"}, {"size": "1"}, {"size": "576"}, {"size": "96"}]}}}}}, {"name": "StatefulPartitionedCall/inference_model_1/mobilenetv2_1.00_224_1/block_12_expand_1/convolution/merged_input", "op": "Const", "attr": {"dtype": {"type": "DT_FLOAT"}, "value": {"tensor": {"dtype": "DT_FLOAT", "tensorShape": {"dim": [{"size": "1"}, {"size": "1"}, {"size": "96"}, {"size": "576"}]}}}}}, {"name": "StatefulPartitionedCall/inference_model_1/mobilenetv2_1.00_224_1/block_12_expand_BN_1/batchnorm/sub", "op": "Const", "attr": {"dtype": {"type": "DT_FLOAT"}, "value": {"tensor": {"dtype": "DT_FLOAT", "tensorShape": {"dim": [{"size": "576"}]}}}}}, {"name": "StatefulPartitionedCall/inference_model_1/mobilenetv2_1.00_224_1/block_12_depthwise_1/depthwise/ReadVariableOp", "op": "Const", "attr": {"dtype": {"type": "DT_FLOAT"}, "value": {"tensor": {"dtype": "DT_FLOAT", "tensorShape": {"dim": [{"size": "3"}, {"size": "3"}, {"size": "576"}, {"size": "1"}]}}}}}, {"name": "StatefulPartitionedCall/inference_model_1/mobilenetv2_1.00_224_1/block_12_depthwise_BN_1/batchnorm/mul", "op": "Const", "attr": {"dtype": {"type": "DT_FLOAT"}, "value": {"tensor": {"dtype": "DT_FLOAT", "tensorShape": {"dim": [{"size": "576"}]}}}}}, {"name": "StatefulPartitionedCall/inference_model_1/mobilenetv2_1.00_224_1/block_12_depthwise_BN_1/batchnorm/sub", "op": "Const", "attr": {"dtype": {"type": "DT_FLOAT"}, "value": {"tensor": {"dtype": "DT_FLOAT", "tensorShape": {"dim": [{"size": "576"}]}}}}}, {"name": "StatefulPartitionedCall/inference_model_1/mobilenetv2_1.00_224_1/block_12_project_1/convolution/merged_input", "op": "Const", "attr": {"dtype": {"type": "DT_FLOAT"}, "value": {"tensor": {"dtype": "DT_FLOAT", "tensorShape": {"dim": [{"size": "1"}, {"size": "1"}, {"size": "576"}, {"size": "96"}]}}}}}, {"name": "StatefulPartitionedCall/inference_model_1/mobilenetv2_1.00_224_1/block_13_expand_1/convolution/merged_input", "op": "Const", "attr": {"dtype": {"type": "DT_FLOAT"}, "value": {"tensor": {"dtype": "DT_FLOAT", "tensorShape": {"dim": [{"size": "1"}, {"size": "1"}, {"size": "96"}, {"size": "576"}]}}}}}, {"name": "StatefulPartitionedCall/inference_model_1/mobilenetv2_1.00_224_1/block_13_expand_BN_1/batchnorm/sub", "op": "Const", "attr": {"dtype": {"type": "DT_FLOAT"}, "value": {"tensor": {"dtype": "DT_FLOAT", "tensorShape": {"dim": [{"size": "576"}]}}}}}, {"name": "StatefulPartitionedCall/inference_model_1/mobilenetv2_1.00_224_1/block_13_pad_1/Const", "op": "Const", "attr": {"dtype": {"type": "DT_INT32"}, "value": {"tensor": {"dtype": "DT_INT32", "tensorShape": {"dim": [{"size": "4"}, {"size": "2"}]}}}}}, {"name": "StatefulPartitionedCall/inference_model_1/mobilenetv2_1.00_224_1/block_13_depthwise_1/depthwise/ReadVariableOp", "op": "Const", "attr": {"dtype": {"type": "DT_FLOAT"}, "value": {"tensor": {"dtype": "DT_FLOAT", "tensorShape": {"dim": [{"size": "3"}, {"size": "3"}, {"size": "576"}, {"size": "1"}]}}}}}, {"name": "StatefulPartitionedCall/inference_model_1/mobilenetv2_1.00_224_1/block_13_depthwise_BN_1/batchnorm/mul", "op": "Const", "attr": {"dtype": {"type": "DT_FLOAT"}, "value": {"tensor": {"dtype": "DT_FLOAT", "tensorShape": {"dim": [{"size": "576"}]}}}}}, {"name": "StatefulPartitionedCall/inference_model_1/mobilenetv2_1.00_224_1/block_13_depthwise_BN_1/batchnorm/sub", "op": "Const", "attr": {"dtype": {"type": "DT_FLOAT"}, "value": {"tensor": {"dtype": "DT_FLOAT", "tensorShape": {"dim": [{"size": "576"}]}}}}}, {"name": "StatefulPartitionedCall/inference_model_1/mobilenetv2_1.00_224_1/block_13_project_1/convolution/merged_input", "op": "Const", "attr": {"dtype": {"type": "DT_FLOAT"}, "value": {"tensor": {"dtype": "DT_FLOAT", "tensorShape": {"dim": [{"size": "1"}, {"size": "1"}, {"size": "576"}, {"size": "160"}]}}}}}, {"name": "StatefulPartitionedCall/inference_model_1/mobilenetv2_1.00_224_1/block_13_project_BN_1/batchnorm/sub", "op": "Const", "attr": {"dtype": {"type": "DT_FLOAT"}, "value": {"tensor": {"dtype": "DT_FLOAT", "tensorShape": {"dim": [{"size": "160"}]}}}}}, {"name": "StatefulPartitionedCall/inference_model_1/mobilenetv2_1.00_224_1/block_14_expand_1/convolution/merged_input", "op": "Const", "attr": {"dtype": {"type": "DT_FLOAT"}, "value": {"tensor": {"dtype": "DT_FLOAT", "tensorShape": {"dim": [{"size": "1"}, {"size": "1"}, {"size": "160"}, {"size": "960"}]}}}}}, {"name": "StatefulPartitionedCall/inference_model_1/mobilenetv2_1.00_224_1/block_14_expand_BN_1/batchnorm/sub", "op": "Const", "attr": {"dtype": {"type": "DT_FLOAT"}, "value": {"tensor": {"dtype": "DT_FLOAT", "tensorShape": {"dim": [{"size": "960"}]}}}}}, {"name": "StatefulPartitionedCall/inference_model_1/mobilenetv2_1.00_224_1/block_14_depthwise_1/depthwise/ReadVariableOp", "op": "Const", "attr": {"dtype": {"type": "DT_FLOAT"}, "value": {"tensor": {"dtype": "DT_FLOAT", "tensorShape": {"dim": [{"size": "3"}, {"size": "3"}, {"size": "960"}, {"size": "1"}]}}}}}, {"name": "StatefulPartitionedCall/inference_model_1/mobilenetv2_1.00_224_1/block_14_depthwise_BN_1/batchnorm/mul", "op": "Const", "attr": {"dtype": {"type": "DT_FLOAT"}, "value": {"tensor": {"dtype": "DT_FLOAT", "tensorShape": {"dim": [{"size": "960"}]}}}}}, {"name": "StatefulPartitionedCall/inference_model_1/mobilenetv2_1.00_224_1/block_14_depthwise_BN_1/batchnorm/sub", "op": "Const", "attr": {"dtype": {"type": "DT_FLOAT"}, "value": {"tensor": {"dtype": "DT_FLOAT", "tensorShape": {"dim": [{"size": "960"}]}}}}}, {"name": "StatefulPartitionedCall/inference_model_1/mobilenetv2_1.00_224_1/block_14_project_1/convolution/merged_input", "op": "Const", "attr": {"dtype": {"type": "DT_FLOAT"}, "value": {"tensor": {"dtype": "DT_FLOAT", "tensorShape": {"dim": [{"size": "1"}, {"size": "1"}, {"size": "960"}, {"size": "160"}]}}}}}, {"name": "StatefulPartitionedCall/inference_model_1/mobilenetv2_1.00_224_1/block_15_expand_1/convolution/merged_input", "op": "Const", "attr": {"dtype": {"type": "DT_FLOAT"}, "value": {"tensor": {"dtype": "DT_FLOAT", "tensorShape": {"dim": [{"size": "1"}, {"size": "1"}, {"size": "160"}, {"size": "960"}]}}}}}, {"name": "StatefulPartitionedCall/inference_model_1/mobilenetv2_1.00_224_1/block_15_expand_BN_1/batchnorm/sub", "op": "Const", "attr": {"dtype": {"type": "DT_FLOAT"}, "value": {"tensor": {"dtype": "DT_FLOAT", "tensorShape": {"dim": [{"size": "960"}]}}}}}, {"name": "StatefulPartitionedCall/inference_model_1/mobilenetv2_1.00_224_1/block_15_depthwise_1/depthwise/ReadVariableOp", "op": "Const", "attr": {"dtype": {"type": "DT_FLOAT"}, "value": {"tensor": {"dtype": "DT_FLOAT", "tensorShape": {"dim": [{"size": "3"}, {"size": "3"}, {"size": "960"}, {"size": "1"}]}}}}}, {"name": "StatefulPartitionedCall/inference_model_1/mobilenetv2_1.00_224_1/block_15_depthwise_BN_1/batchnorm/mul", "op": "Const", "attr": {"dtype": {"type": "DT_FLOAT"}, "value": {"tensor": {"dtype": "DT_FLOAT", "tensorShape": {"dim": [{"size": "960"}]}}}}}, {"name": "StatefulPartitionedCall/inference_model_1/mobilenetv2_1.00_224_1/block_15_depthwise_BN_1/batchnorm/sub", "op": "Const", "attr": {"dtype": {"type": "DT_FLOAT"}, "value": {"tensor": {"dtype": "DT_FLOAT", "tensorShape": {"dim": [{"size": "960"}]}}}}}, {"name": "StatefulPartitionedCall/inference_model_1/mobilenetv2_1.00_224_1/block_15_project_1/convolution/merged_input", "op": "Const", "attr": {"dtype": {"type": "DT_FLOAT"}, "value": {"tensor": {"dtype": "DT_FLOAT", "tensorShape": {"dim": [{"size": "1"}, {"size": "1"}, {"size": "960"}, {"size": "160"}]}}}}}, {"name": "StatefulPartitionedCall/inference_model_1/mobilenetv2_1.00_224_1/block_16_expand_1/convolution/merged_input", "op": "Const", "attr": {"dtype": {"type": "DT_FLOAT"}, "value": {"tensor": {"dtype": "DT_FLOAT", "tensorShape": {"dim": [{"size": "1"}, {"size": "1"}, {"size": "160"}, {"size": "960"}]}}}}}, {"name": "StatefulPartitionedCall/inference_model_1/mobilenetv2_1.00_224_1/block_16_expand_BN_1/batchnorm/sub", "op": "Const", "attr": {"dtype": {"type": "DT_FLOAT"}, "value": {"tensor": {"dtype": "DT_FLOAT", "tensorShape": {"dim": [{"size": "960"}]}}}}}, {"name": "StatefulPartitionedCall/inference_model_1/mobilenetv2_1.00_224_1/block_16_depthwise_1/depthwise/ReadVariableOp", "op": "Const", "attr": {"dtype": {"type": "DT_FLOAT"}, "value": {"tensor": {"dtype": "DT_FLOAT", "tensorShape": {"dim": [{"size": "3"}, {"size": "3"}, {"size": "960"}, {"size": "1"}]}}}}}, {"name": "StatefulPartitionedCall/inference_model_1/mobilenetv2_1.00_224_1/block_16_depthwise_BN_1/batchnorm/mul", "op": "Const", "attr": {"dtype": {"type": "DT_FLOAT"}, "value": {"tensor": {"dtype": "DT_FLOAT", "tensorShape": {"dim": [{"size": "960"}]}}}}}, {"name": "StatefulPartitionedCall/inference_model_1/mobilenetv2_1.00_224_1/block_16_depthwise_BN_1/batchnorm/sub", "op": "Const", "attr": {"dtype": {"type": "DT_FLOAT"}, "value": {"tensor": {"dtype": "DT_FLOAT", "tensorShape": {"dim": [{"size": "960"}]}}}}}, {"name": "StatefulPartitionedCall/inference_model_1/mobilenetv2_1.00_224_1/block_16_project_1/convolution/merged_input", "op": "Const", "attr": {"dtype": {"type": "DT_FLOAT"}, "value": {"tensor": {"dtype": "DT_FLOAT", "tensorShape": {"dim": [{"size": "1"}, {"size": "1"}, {"size": "960"}, {"size": "320"}]}}}}}, {"name": "StatefulPartitionedCall/inference_model_1/mobilenetv2_1.00_224_1/block_16_project_BN_1/batchnorm/sub", "op": "Const", "attr": {"dtype": {"type": "DT_FLOAT"}, "value": {"tensor": {"dtype": "DT_FLOAT", "tensorShape": {"dim": [{"size": "320"}]}}}}}, {"name": "StatefulPartitionedCall/inference_model_1/mobilenetv2_1.00_224_1/Conv_1_1/convolution/merged_input", "op": "Const", "attr": {"dtype": {"type": "DT_FLOAT"}, "value": {"tensor": {"dtype": "DT_FLOAT", "tensorShape": {"dim": [{"size": "1"}, {"size": "1"}, {"size": "320"}, {"size": "1280"}]}}}}}, {"name": "StatefulPartitionedCall/inference_model_1/mobilenetv2_1.00_224_1/Conv_1_bn_1/batchnorm/sub", "op": "Const", "attr": {"dtype": {"type": "DT_FLOAT"}, "value": {"tensor": {"dtype": "DT_FLOAT", "tensorShape": {"dim": [{"size": "1280"}]}}}}}, {"name": "StatefulPartitionedCall/inference_model_1/global_average_pooling2d_1/Mean/reduction_indices", "op": "Const", "attr": {"dtype": {"type": "DT_INT32"}, "value": {"tensor": {"dtype": "DT_INT32", "tensorShape": {"dim": [{"size": "2"}]}}}}}, {"name": "StatefulPartitionedCall/inference_model_1/dense_1/Cast/ReadVariableOp", "op": "Const", "attr": {"dtype": {"type": "DT_FLOAT"}, "value": {"tensor": {"dtype": "DT_FLOAT", "tensorShape": {"dim": [{"size": "1280"}, {"size": "151"}]}}}}}, {"name": "StatefulPartitionedCall/inference_model_1/dense_1/BiasAdd/ReadVariableOp", "op": "Const", "attr": {"dtype": {"type": "DT_FLOAT"}, "value": {"tensor": {"dtype": "DT_FLOAT", "tensorShape": {"dim": [{"size": "151"}]}}}}}, {"name": "input_layer", "op": "Placeholder", "attr": {"dtype": {"type": "DT_FLOAT"}, "shape": {"shape": {"dim": [{"size": "-1"}, {"size": "224"}, {"size": "224"}, {"size": "3"}]}}}}, {"name": "StatefulPartitionedCall/inference_model_1/rescaling_1/mul", "op": "Mul", "input": ["input_layer", "StatefulPartitionedCall/inference_model_1/rescaling_1/Cast/x"], "attr": {"T": {"type": "DT_FLOAT"}}}, {"name": "StatefulPartitionedCall/inference_model_1/rescaling_1/add", "op": "AddV2", "input": ["StatefulPartitionedCall/inference_model_1/rescaling_1/mul", "StatefulPartitionedCall/inference_model_1/rescaling_1/Cast_1/x"], "attr": {"T": {"type": "DT_FLOAT"}}}, {"name": "StatefulPartitionedCall/inference_model_1/mobilenetv2_1.00_224_1/Conv1_relu_1/Relu6", "op": "_FusedConv2D", "input": ["StatefulPartitionedCall/inference_model_1/rescaling_1/add", "StatefulPartitionedCall/inference_model_1/mobilenetv2_1.00_224_1/Conv1_1/convolution/merged_input", "StatefulPartitionedCall/inference_model_1/mobilenetv2_1.00_224_1/bn_Conv1_1/batchnorm/sub"], "device": "/device:CPU:0", "attr": {"explicit_paddings": {"list": {}}, "epsilon": {"f": 0.0}, "filter_format": {"s": "SFdJTw=="}, "leakyrelu_alpha": {"f": 0.2}, "use_cudnn_on_gpu": {"b": true}, "num_host_args": {"i": "0"}, "data_format": {"s": "TkhXQw=="}, "num_args": {"i": "1"}, "_input_shapes": {"list": {"shape": [{"dim": [{"size": "-2"}, {"size": "-11"}, {"size": "-12"}, {"size": "-13"}]}, {"dim": [{"size": "3"}, {"size": "3"}, {"size": "3"}, {"size": "32"}]}]}}, "TArgs": {"list": {"type": ["DT_FLOAT"]}}, "padding": {"s": "U0FNRQ=="}, "fused_ops": {"list": {"s": ["Qmlhc0FkZA==", "UmVsdTY="]}}, "strides": {"list": {"i": ["1", "2", "2", "1"]}}, "T": {"type": "DT_FLOAT"}, "dilations": {"list": {"i": ["1", "1", "1", "1"]}}}}, {"name": "StatefulPartitionedCall/inference_model_1/mobilenetv2_1.00_224_1/expanded_conv_depthwise_1/depthwise", "op": "DepthwiseConv2dNative", "input": ["StatefulPartitionedCall/inference_model_1/mobilenetv2_1.00_224_1/Conv1_relu_1/Relu6", "StatefulPartitionedCall/inference_model_1/mobilenetv2_1.00_224_1/expanded_conv_depthwise_1/depthwise/ReadVariableOp"], "attr": {"explicit_paddings": {"list": {}}, "padding": {"s": "U0FNRQ=="}, "data_format": {"s": "TkhXQw=="}, "strides": {"list": {"i": ["1", "1", "1", "1"]}}, "T": {"type": "DT_FLOAT"}, "dilations": {"list": {"i": ["1", "1", "1", "1"]}}, "_input_shapes": {"list": {"shape": [{"dim": [{"size": "-2"}, {"size": "-14"}, {"size": "-15"}, {"size": "32"}]}, {"dim": [{"size": "3"}, {"size": "3"}, {"size": "32"}, {"size": "1"}]}]}}}}, {"name": "StatefulPartitionedCall/inference_model_1/mobilenetv2_1.00_224_1/expanded_conv_depthwise_BN_1/batchnorm/mul_1", "op": "Mul", "input": ["StatefulPartitionedCall/inference_model_1/mobilenetv2_1.00_224_1/expanded_conv_depthwise_1/depthwise", "StatefulPartitionedCall/inference_model_1/mobilenetv2_1.00_224_1/expanded_conv_depthwise_BN_1/batchnorm/mul"], "attr": {"T": {"type": "DT_FLOAT"}}}, {"name": "StatefulPartitionedCall/inference_model_1/mobilenetv2_1.00_224_1/expanded_conv_depthwise_BN_1/batchnorm/add_1", "op": "AddV2", "input": ["StatefulPartitionedCall/inference_model_1/mobilenetv2_1.00_224_1/expanded_conv_depthwise_BN_1/batchnorm/mul_1", "StatefulPartitionedCall/inference_model_1/mobilenetv2_1.00_224_1/expanded_conv_depthwise_BN_1/batchnorm/sub"], "attr": {"T": {"type": "DT_FLOAT"}}}, {"name": "StatefulPartitionedCall/inference_model_1/mobilenetv2_1.00_224_1/expanded_conv_depthwise_relu_1/Relu6", "op": "Relu6", "input": ["StatefulPartitionedCall/inference_model_1/mobilenetv2_1.00_224_1/expanded_conv_depthwise_BN_1/batchnorm/add_1"], "attr": {"T": {"type": "DT_FLOAT"}}}, {"name": "StatefulPartitionedCall/inference_model_1/mobilenetv2_1.00_224_1/expanded_conv_project_BN_1/batchnorm/add_1", "op": "_FusedConv2D", "input": ["StatefulPartitionedCall/inference_model_1/mobilenetv2_1.00_224_1/expanded_conv_depthwise_relu_1/Relu6", "StatefulPartitionedCall/inference_model_1/mobilenetv2_1.00_224_1/expanded_conv_project_1/convolution/merged_input", "StatefulPartitionedCall/inference_model_1/mobilenetv2_1.00_224_1/expanded_conv_project_BN_1/batchnorm/sub"], "device": "/device:CPU:0", "attr": {"explicit_paddings": {"list": {}}, "epsilon": {"f": 0.0}, "filter_format": {"s": "SFdJTw=="}, "leakyrelu_alpha": {"f": 0.2}, "_input_shapes": {"list": {"shape": [{"dim": [{"size": "-2"}, {"size": "-14"}, {"size": "-15"}, {"size": "32"}]}, {"dim": [{"size": "1"}, {"size": "1"}, {"size": "32"}, {"size": "16"}]}]}}, "num_host_args": {"i": "0"}, "data_format": {"s": "TkhXQw=="}, "num_args": {"i": "1"}, "use_cudnn_on_gpu": {"b": true}, "TArgs": {"list": {"type": ["DT_FLOAT"]}}, "padding": {"s": "U0FNRQ=="}, "fused_ops": {"list": {"s": ["Qmlhc0FkZA=="]}}, "strides": {"list": {"i": ["1", "1", "1", "1"]}}, "T": {"type": "DT_FLOAT"}, "dilations": {"list": {"i": ["1", "1", "1", "1"]}}}}, {"name": "StatefulPartitionedCall/inference_model_1/mobilenetv2_1.00_224_1/block_1_expand_relu_1/Relu6", "op": "_FusedConv2D", "input": ["StatefulPartitionedCall/inference_model_1/mobilenetv2_1.00_224_1/expanded_conv_project_BN_1/batchnorm/add_1", "StatefulPartitionedCall/inference_model_1/mobilenetv2_1.00_224_1/block_1_expand_1/convolution/merged_input", "StatefulPartitionedCall/inference_model_1/mobilenetv2_1.00_224_1/block_1_expand_BN_1/batchnorm/sub"], "device": "/device:CPU:0", "attr": {"explicit_paddings": {"list": {}}, "epsilon": {"f": 0.0}, "filter_format": {"s": "SFdJTw=="}, "leakyrelu_alpha": {"f": 0.2}, "use_cudnn_on_gpu": {"b": true}, "num_host_args": {"i": "0"}, "data_format": {"s": "TkhXQw=="}, "num_args": {"i": "1"}, "_input_shapes": {"list": {"shape": [{"dim": [{"size": "-2"}, {"size": "-14"}, {"size": "-15"}, {"size": "16"}]}, {"dim": [{"size": "1"}, {"size": "1"}, {"size": "16"}, {"size": "96"}]}]}}, "TArgs": {"list": {"type": ["DT_FLOAT"]}}, "padding": {"s": "U0FNRQ=="}, "fused_ops": {"list": {"s": ["Qmlhc0FkZA==", "UmVsdTY="]}}, "T": {"type": "DT_FLOAT"}, "strides": {"list": {"i": ["1", "1", "1", "1"]}}, "dilations": {"list": {"i": ["1", "1", "1", "1"]}}}}, {"name": "StatefulPartitionedCall/inference_model_1/mobilenetv2_1.00_224_1/block_1_pad_1/Pad", "op": "Pad", "input": ["StatefulPartitionedCall/inference_model_1/mobilenetv2_1.00_224_1/block_1_expand_relu_1/Relu6", "StatefulPartitionedCall/inference_model_1/mobilenetv2_1.00_224_1/block_1_pad_1/Const"], "attr": {"T": {"type": "DT_FLOAT"}, "Tpaddings": {"type": "DT_INT32"}}}, {"name": "StatefulPartitionedCall/inference_model_1/mobilenetv2_1.00_224_1/block_1_depthwise_1/depthwise", "op": "DepthwiseConv2dNative", "input": ["StatefulPartitionedCall/inference_model_1/mobilenetv2_1.00_224_1/block_1_pad_1/Pad", "StatefulPartitionedCall/inference_model_1/mobilenetv2_1.00_224_1/block_1_depthwise_1/depthwise/ReadVariableOp"], "attr": {"explicit_paddings": {"list": {}}, "padding": {"s": "VkFMSUQ="}, "data_format": {"s": "TkhXQw=="}, "T": {"type": "DT_FLOAT"}, "strides": {"list": {"i": ["1", "2", "2", "1"]}}, "dilations": {"list": {"i": ["1", "1", "1", "1"]}}, "_input_shapes": {"list": {"shape": [{"dim": [{"size": "-2"}, {"size": "-16"}, {"size": "-17"}, {"size": "96"}]}, {"dim": [{"size": "3"}, {"size": "3"}, {"size": "96"}, {"size": "1"}]}]}}}}, {"name": "StatefulPartitionedCall/inference_model_1/mobilenetv2_1.00_224_1/block_1_depthwise_BN_1/batchnorm/mul_1", "op": "Mul", "input": ["StatefulPartitionedCall/inference_model_1/mobilenetv2_1.00_224_1/block_1_depthwise_1/depthwise", "StatefulPartitionedCall/inference_model_1/mobilenetv2_1.00_224_1/block_1_depthwise_BN_1/batchnorm/mul"], "attr": {"T": {"type": "DT_FLOAT"}}}, {"name": "StatefulPartitionedCall/inference_model_1/mobilenetv2_1.00_224_1/block_1_depthwise_BN_1/batchnorm/add_1", "op": "AddV2", "input": ["StatefulPartitionedCall/inference_model_1/mobilenetv2_1.00_224_1/block_1_depthwise_BN_1/batchnorm/mul_1", "StatefulPartitionedCall/inference_model_1/mobilenetv2_1.00_224_1/block_1_depthwise_BN_1/batchnorm/sub"], "attr": {"T": {"type": "DT_FLOAT"}}}, {"name": "StatefulPartitionedCall/inference_model_1/mobilenetv2_1.00_224_1/block_1_depthwise_relu_1/Relu6", "op": "Relu6", "input": ["StatefulPartitionedCall/inference_model_1/mobilenetv2_1.00_224_1/block_1_depthwise_BN_1/batchnorm/add_1"], "attr": {"T": {"type": "DT_FLOAT"}}}, {"name": "StatefulPartitionedCall/inference_model_1/mobilenetv2_1.00_224_1/block_1_project_BN_1/batchnorm/add_1", "op": "_FusedConv2D", "input": ["StatefulPartitionedCall/inference_model_1/mobilenetv2_1.00_224_1/block_1_depthwise_relu_1/Relu6", "StatefulPartitionedCall/inference_model_1/mobilenetv2_1.00_224_1/block_1_project_1/convolution/merged_input", "StatefulPartitionedCall/inference_model_1/mobilenetv2_1.00_224_1/block_1_project_BN_1/batchnorm/sub"], "device": "/device:CPU:0", "attr": {"explicit_paddings": {"list": {}}, "epsilon": {"f": 0.0}, "filter_format": {"s": "SFdJTw=="}, "leakyrelu_alpha": {"f": 0.2}, "use_cudnn_on_gpu": {"b": true}, "num_host_args": {"i": "0"}, "data_format": {"s": "TkhXQw=="}, "num_args": {"i": "1"}, "_input_shapes": {"list": {"shape": [{"dim": [{"size": "-2"}, {"size": "-3"}, {"size": "-4"}, {"size": "96"}]}, {"dim": [{"size": "1"}, {"size": "1"}, {"size": "96"}, {"size": "24"}]}]}}, "TArgs": {"list": {"type": ["DT_FLOAT"]}}, "padding": {"s": "U0FNRQ=="}, "fused_ops": {"list": {"s": ["Qmlhc0FkZA=="]}}, "strides": {"list": {"i": ["1", "1", "1", "1"]}}, "T": {"type": "DT_FLOAT"}, "dilations": {"list": {"i": ["1", "1", "1", "1"]}}}}, {"name": "StatefulPartitionedCall/inference_model_1/mobilenetv2_1.00_224_1/block_2_expand_relu_1/Relu6", "op": "_FusedConv2D", "input": ["StatefulPartitionedCall/inference_model_1/mobilenetv2_1.00_224_1/block_1_project_BN_1/batchnorm/add_1", "StatefulPartitionedCall/inference_model_1/mobilenetv2_1.00_224_1/block_2_expand_1/convolution/merged_input", "StatefulPartitionedCall/inference_model_1/mobilenetv2_1.00_224_1/block_2_expand_BN_1/batchnorm/sub"], "device": "/device:CPU:0", "attr": {"explicit_paddings": {"list": {}}, "epsilon": {"f": 0.0}, "filter_format": {"s": "SFdJTw=="}, "leakyrelu_alpha": {"f": 0.2}, "use_cudnn_on_gpu": {"b": true}, "num_host_args": {"i": "0"}, "data_format": {"s": "TkhXQw=="}, "num_args": {"i": "1"}, "_input_shapes": {"list": {"shape": [{"dim": [{"size": "-2"}, {"size": "-3"}, {"size": "-4"}, {"size": "24"}]}, {"dim": [{"size": "1"}, {"size": "1"}, {"size": "24"}, {"size": "144"}]}]}}, "TArgs": {"list": {"type": ["DT_FLOAT"]}}, "padding": {"s": "U0FNRQ=="}, "fused_ops": {"list": {"s": ["Qmlhc0FkZA==", "UmVsdTY="]}}, "T": {"type": "DT_FLOAT"}, "strides": {"list": {"i": ["1", "1", "1", "1"]}}, "dilations": {"list": {"i": ["1", "1", "1", "1"]}}}}, {"name": "StatefulPartitionedCall/inference_model_1/mobilenetv2_1.00_224_1/block_2_depthwise_1/depthwise", "op": "DepthwiseConv2dNative", "input": ["StatefulPartitionedCall/inference_model_1/mobilenetv2_1.00_224_1/block_2_expand_relu_1/Relu6", "StatefulPartitionedCall/inference_model_1/mobilenetv2_1.00_224_1/block_2_depthwise_1/depthwise/ReadVariableOp"], "attr": {"explicit_paddings": {"list": {}}, "data_format": {"s": "TkhXQw=="}, "padding": {"s": "U0FNRQ=="}, "strides": {"list": {"i": ["1", "1", "1", "1"]}}, "T": {"type": "DT_FLOAT"}, "dilations": {"list": {"i": ["1", "1", "1", "1"]}}, "_input_shapes": {"list": {"shape": [{"dim": [{"size": "-2"}, {"size": "-3"}, {"size": "-4"}, {"size": "144"}]}, {"dim": [{"size": "3"}, {"size": "3"}, {"size": "144"}, {"size": "1"}]}]}}}}, {"name": "StatefulPartitionedCall/inference_model_1/mobilenetv2_1.00_224_1/block_2_depthwise_BN_1/batchnorm/mul_1", "op": "Mul", "input": ["StatefulPartitionedCall/inference_model_1/mobilenetv2_1.00_224_1/block_2_depthwise_1/depthwise", "StatefulPartitionedCall/inference_model_1/mobilenetv2_1.00_224_1/block_2_depthwise_BN_1/batchnorm/mul"], "attr": {"T": {"type": "DT_FLOAT"}}}, {"name": "StatefulPartitionedCall/inference_model_1/mobilenetv2_1.00_224_1/block_2_depthwise_BN_1/batchnorm/add_1", "op": "AddV2", "input": ["StatefulPartitionedCall/inference_model_1/mobilenetv2_1.00_224_1/block_2_depthwise_BN_1/batchnorm/mul_1", "StatefulPartitionedCall/inference_model_1/mobilenetv2_1.00_224_1/block_2_depthwise_BN_1/batchnorm/sub"], "attr": {"T": {"type": "DT_FLOAT"}}}, {"name": "StatefulPartitionedCall/inference_model_1/mobilenetv2_1.00_224_1/block_2_depthwise_relu_1/Relu6", "op": "Relu6", "input": ["StatefulPartitionedCall/inference_model_1/mobilenetv2_1.00_224_1/block_2_depthwise_BN_1/batchnorm/add_1"], "attr": {"T": {"type": "DT_FLOAT"}}}, {"name": "StatefulPartitionedCall/inference_model_1/mobilenetv2_1.00_224_1/block_2_project_BN_1/batchnorm/mul_1", "op": "Conv2D", "input": ["StatefulPartitionedCall/inference_model_1/mobilenetv2_1.00_224_1/block_2_depthwise_relu_1/Relu6", "StatefulPartitionedCall/inference_model_1/mobilenetv2_1.00_224_1/block_2_project_1/convolution/merged_input"], "device": "/device:CPU:0", "attr": {"explicit_paddings": {"list": {}}, "_input_shapes": {"list": {"shape": [{"dim": [{"size": "-2"}, {"size": "-3"}, {"size": "-4"}, {"size": "144"}]}, {"dim": [{"size": "1"}, {"size": "1"}, {"size": "144"}, {"size": "24"}]}]}}, "use_cudnn_on_gpu": {"b": true}, "data_format": {"s": "TkhXQw=="}, "padding": {"s": "U0FNRQ=="}, "T": {"type": "DT_FLOAT"}, "strides": {"list": {"i": ["1", "1", "1", "1"]}}, "dilations": {"list": {"i": ["1", "1", "1", "1"]}}}}, {"name": "StatefulPartitionedCall/inference_model_1/mobilenetv2_1.00_224_1/block_2_add_1/ArithmeticOptimizer/AddOpsRewrite_Leaf_1_Add", "op": "AddN", "input": ["StatefulPartitionedCall/inference_model_1/mobilenetv2_1.00_224_1/block_1_project_BN_1/batchnorm/add_1", "StatefulPartitionedCall/inference_model_1/mobilenetv2_1.00_224_1/block_2_project_BN_1/batchnorm/mul_1"], "attr": {"_grappler_ArithmeticOptimizer_AddOpsRewriteStage": {"b": true}, "T": {"type": "DT_FLOAT"}, "N": {"i": "2"}}}, {"name": "StatefulPartitionedCall/inference_model_1/mobilenetv2_1.00_224_1/block_2_add_1/ArithmeticOptimizer/AddOpsRewrite_Add", "op": "AddV2", "input": ["StatefulPartitionedCall/inference_model_1/mobilenetv2_1.00_224_1/block_2_project_BN_1/batchnorm/sub", "StatefulPartitionedCall/inference_model_1/mobilenetv2_1.00_224_1/block_2_add_1/ArithmeticOptimizer/AddOpsRewrite_Leaf_1_Add"], "attr": {"_grappler_ArithmeticOptimizer_AddOpsRewriteStage": {"b": true}, "T": {"type": "DT_FLOAT"}}}, {"name": "StatefulPartitionedCall/inference_model_1/mobilenetv2_1.00_224_1/block_3_expand_relu_1/Relu6", "op": "_FusedConv2D", "input": ["StatefulPartitionedCall/inference_model_1/mobilenetv2_1.00_224_1/block_2_add_1/ArithmeticOptimizer/AddOpsRewrite_Add", "StatefulPartitionedCall/inference_model_1/mobilenetv2_1.00_224_1/block_3_expand_1/convolution/merged_input", "StatefulPartitionedCall/inference_model_1/mobilenetv2_1.00_224_1/block_3_expand_BN_1/batchnorm/sub"], "device": "/device:CPU:0", "attr": {"explicit_paddings": {"list": {}}, "epsilon": {"f": 0.0}, "filter_format": {"s": "SFdJTw=="}, "leakyrelu_alpha": {"f": 0.2}, "use_cudnn_on_gpu": {"b": true}, "num_host_args": {"i": "0"}, "data_format": {"s": "TkhXQw=="}, "num_args": {"i": "1"}, "_input_shapes": {"list": {"shape": [{"dim": [{"size": "-2"}, {"size": "-3"}, {"size": "-4"}, {"size": "24"}]}, {"dim": [{"size": "1"}, {"size": "1"}, {"size": "24"}, {"size": "144"}]}]}}, "TArgs": {"list": {"type": ["DT_FLOAT"]}}, "padding": {"s": "U0FNRQ=="}, "fused_ops": {"list": {"s": ["Qmlhc0FkZA==", "UmVsdTY="]}}, "T": {"type": "DT_FLOAT"}, "strides": {"list": {"i": ["1", "1", "1", "1"]}}, "dilations": {"list": {"i": ["1", "1", "1", "1"]}}}}, {"name": "StatefulPartitionedCall/inference_model_1/mobilenetv2_1.00_224_1/block_3_pad_1/Pad", "op": "Pad", "input": ["StatefulPartitionedCall/inference_model_1/mobilenetv2_1.00_224_1/block_3_expand_relu_1/Relu6", "StatefulPartitionedCall/inference_model_1/mobilenetv2_1.00_224_1/block_3_pad_1/Const"], "attr": {"T": {"type": "DT_FLOAT"}, "Tpaddings": {"type": "DT_INT32"}}}, {"name": "StatefulPartitionedCall/inference_model_1/mobilenetv2_1.00_224_1/block_3_depthwise_1/depthwise", "op": "DepthwiseConv2dNative", "input": ["StatefulPartitionedCall/inference_model_1/mobilenetv2_1.00_224_1/block_3_pad_1/Pad", "StatefulPartitionedCall/inference_model_1/mobilenetv2_1.00_224_1/block_3_depthwise_1/depthwise/ReadVariableOp"], "attr": {"explicit_paddings": {"list": {}}, "data_format": {"s": "TkhXQw=="}, "padding": {"s": "VkFMSUQ="}, "strides": {"list": {"i": ["1", "2", "2", "1"]}}, "T": {"type": "DT_FLOAT"}, "dilations": {"list": {"i": ["1", "1", "1", "1"]}}, "_input_shapes": {"list": {"shape": [{"dim": [{"size": "-2"}, {"size": "-18"}, {"size": "-19"}, {"size": "144"}]}, {"dim": [{"size": "3"}, {"size": "3"}, {"size": "144"}, {"size": "1"}]}]}}}}, {"name": "StatefulPartitionedCall/inference_model_1/mobilenetv2_1.00_224_1/block_3_depthwise_BN_1/batchnorm/mul_1", "op": "Mul", "input": ["StatefulPartitionedCall/inference_model_1/mobilenetv2_1.00_224_1/block_3_depthwise_1/depthwise", "StatefulPartitionedCall/inference_model_1/mobilenetv2_1.00_224_1/block_3_depthwise_BN_1/batchnorm/mul"], "attr": {"T": {"type": "DT_FLOAT"}}}, {"name": "StatefulPartitionedCall/inference_model_1/mobilenetv2_1.00_224_1/block_3_depthwise_BN_1/batchnorm/add_1", "op": "AddV2", "input": ["StatefulPartitionedCall/inference_model_1/mobilenetv2_1.00_224_1/block_3_depthwise_BN_1/batchnorm/mul_1", "StatefulPartitionedCall/inference_model_1/mobilenetv2_1.00_224_1/block_3_depthwise_BN_1/batchnorm/sub"], "attr": {"T": {"type": "DT_FLOAT"}}}, {"name": "StatefulPartitionedCall/inference_model_1/mobilenetv2_1.00_224_1/block_3_depthwise_relu_1/Relu6", "op": "Relu6", "input": ["StatefulPartitionedCall/inference_model_1/mobilenetv2_1.00_224_1/block_3_depthwise_BN_1/batchnorm/add_1"], "attr": {"T": {"type": "DT_FLOAT"}}}, {"name": "StatefulPartitionedCall/inference_model_1/mobilenetv2_1.00_224_1/block_3_project_BN_1/batchnorm/add_1", "op": "_FusedConv2D", "input": ["StatefulPartitionedCall/inference_model_1/mobilenetv2_1.00_224_1/block_3_depthwise_relu_1/Relu6", "StatefulPartitionedCall/inference_model_1/mobilenetv2_1.00_224_1/block_3_project_1/convolution/merged_input", "StatefulPartitionedCall/inference_model_1/mobilenetv2_1.00_224_1/block_3_project_BN_1/batchnorm/sub"], "device": "/device:CPU:0", "attr": {"explicit_paddings": {"list": {}}, "epsilon": {"f": 0.0}, "filter_format": {"s": "SFdJTw=="}, "leakyrelu_alpha": {"f": 0.2}, "use_cudnn_on_gpu": {"b": true}, "num_host_args": {"i": "0"}, "data_format": {"s": "TkhXQw=="}, "num_args": {"i": "1"}, "_input_shapes": {"list": {"shape": [{"dim": [{"size": "-2"}, {"size": "-5"}, {"size": "-6"}, {"size": "144"}]}, {"dim": [{"size": "1"}, {"size": "1"}, {"size": "144"}, {"size": "32"}]}]}}, "TArgs": {"list": {"type": ["DT_FLOAT"]}}, "padding": {"s": "U0FNRQ=="}, "fused_ops": {"list": {"s": ["Qmlhc0FkZA=="]}}, "T": {"type": "DT_FLOAT"}, "strides": {"list": {"i": ["1", "1", "1", "1"]}}, "dilations": {"list": {"i": ["1", "1", "1", "1"]}}}}, {"name": "StatefulPartitionedCall/inference_model_1/mobilenetv2_1.00_224_1/block_4_expand_relu_1/Relu6", "op": "_FusedConv2D", "input": ["StatefulPartitionedCall/inference_model_1/mobilenetv2_1.00_224_1/block_3_project_BN_1/batchnorm/add_1", "StatefulPartitionedCall/inference_model_1/mobilenetv2_1.00_224_1/block_4_expand_1/convolution/merged_input", "StatefulPartitionedCall/inference_model_1/mobilenetv2_1.00_224_1/block_4_expand_BN_1/batchnorm/sub"], "device": "/device:CPU:0", "attr": {"explicit_paddings": {"list": {}}, "epsilon": {"f": 0.0}, "filter_format": {"s": "SFdJTw=="}, "leakyrelu_alpha": {"f": 0.2}, "_input_shapes": {"list": {"shape": [{"dim": [{"size": "-2"}, {"size": "-5"}, {"size": "-6"}, {"size": "32"}]}, {"dim": [{"size": "1"}, {"size": "1"}, {"size": "32"}, {"size": "192"}]}]}}, "num_host_args": {"i": "0"}, "data_format": {"s": "TkhXQw=="}, "num_args": {"i": "1"}, "use_cudnn_on_gpu": {"b": true}, "TArgs": {"list": {"type": ["DT_FLOAT"]}}, "padding": {"s": "U0FNRQ=="}, "fused_ops": {"list": {"s": ["Qmlhc0FkZA==", "UmVsdTY="]}}, "T": {"type": "DT_FLOAT"}, "strides": {"list": {"i": ["1", "1", "1", "1"]}}, "dilations": {"list": {"i": ["1", "1", "1", "1"]}}}}, {"name": "StatefulPartitionedCall/inference_model_1/mobilenetv2_1.00_224_1/block_4_depthwise_1/depthwise", "op": "DepthwiseConv2dNative", "input": ["StatefulPartitionedCall/inference_model_1/mobilenetv2_1.00_224_1/block_4_expand_relu_1/Relu6", "StatefulPartitionedCall/inference_model_1/mobilenetv2_1.00_224_1/block_4_depthwise_1/depthwise/ReadVariableOp"], "attr": {"explicit_paddings": {"list": {}}, "padding": {"s": "U0FNRQ=="}, "data_format": {"s": "TkhXQw=="}, "strides": {"list": {"i": ["1", "1", "1", "1"]}}, "T": {"type": "DT_FLOAT"}, "dilations": {"list": {"i": ["1", "1", "1", "1"]}}, "_input_shapes": {"list": {"shape": [{"dim": [{"size": "-2"}, {"size": "-5"}, {"size": "-6"}, {"size": "192"}]}, {"dim": [{"size": "3"}, {"size": "3"}, {"size": "192"}, {"size": "1"}]}]}}}}, {"name": "StatefulPartitionedCall/inference_model_1/mobilenetv2_1.00_224_1/block_4_depthwise_BN_1/batchnorm/mul_1", "op": "Mul", "input": ["StatefulPartitionedCall/inference_model_1/mobilenetv2_1.00_224_1/block_4_depthwise_1/depthwise", "StatefulPartitionedCall/inference_model_1/mobilenetv2_1.00_224_1/block_4_depthwise_BN_1/batchnorm/mul"], "attr": {"T": {"type": "DT_FLOAT"}}}, {"name": "StatefulPartitionedCall/inference_model_1/mobilenetv2_1.00_224_1/block_4_depthwise_BN_1/batchnorm/add_1", "op": "AddV2", "input": ["StatefulPartitionedCall/inference_model_1/mobilenetv2_1.00_224_1/block_4_depthwise_BN_1/batchnorm/mul_1", "StatefulPartitionedCall/inference_model_1/mobilenetv2_1.00_224_1/block_4_depthwise_BN_1/batchnorm/sub"], "attr": {"T": {"type": "DT_FLOAT"}}}, {"name": "StatefulPartitionedCall/inference_model_1/mobilenetv2_1.00_224_1/block_4_depthwise_relu_1/Relu6", "op": "Relu6", "input": ["StatefulPartitionedCall/inference_model_1/mobilenetv2_1.00_224_1/block_4_depthwise_BN_1/batchnorm/add_1"], "attr": {"T": {"type": "DT_FLOAT"}}}, {"name": "StatefulPartitionedCall/inference_model_1/mobilenetv2_1.00_224_1/block_4_project_BN_1/batchnorm/mul_1", "op": "Conv2D", "input": ["StatefulPartitionedCall/inference_model_1/mobilenetv2_1.00_224_1/block_4_depthwise_relu_1/Relu6", "StatefulPartitionedCall/inference_model_1/mobilenetv2_1.00_224_1/block_4_project_1/convolution/merged_input"], "device": "/device:CPU:0", "attr": {"explicit_paddings": {"list": {}}, "_input_shapes": {"list": {"shape": [{"dim": [{"size": "-2"}, {"size": "-5"}, {"size": "-6"}, {"size": "192"}]}, {"dim": [{"size": "1"}, {"size": "1"}, {"size": "192"}, {"size": "32"}]}]}}, "use_cudnn_on_gpu": {"b": true}, "padding": {"s": "U0FNRQ=="}, "data_format": {"s": "TkhXQw=="}, "strides": {"list": {"i": ["1", "1", "1", "1"]}}, "T": {"type": "DT_FLOAT"}, "dilations": {"list": {"i": ["1", "1", "1", "1"]}}}}, {"name": "StatefulPartitionedCall/inference_model_1/mobilenetv2_1.00_224_1/block_4_add_1/ArithmeticOptimizer/AddOpsRewrite_Leaf_1_Add", "op": "AddN", "input": ["StatefulPartitionedCall/inference_model_1/mobilenetv2_1.00_224_1/block_3_project_BN_1/batchnorm/add_1", "StatefulPartitionedCall/inference_model_1/mobilenetv2_1.00_224_1/block_4_project_BN_1/batchnorm/mul_1"], "attr": {"_grappler_ArithmeticOptimizer_AddOpsRewriteStage": {"b": true}, "T": {"type": "DT_FLOAT"}, "N": {"i": "2"}}}, {"name": "StatefulPartitionedCall/inference_model_1/mobilenetv2_1.00_224_1/block_4_add_1/ArithmeticOptimizer/AddOpsRewrite_Add", "op": "AddV2", "input": ["StatefulPartitionedCall/inference_model_1/mobilenetv2_1.00_224_1/block_4_project_BN_1/batchnorm/sub", "StatefulPartitionedCall/inference_model_1/mobilenetv2_1.00_224_1/block_4_add_1/ArithmeticOptimizer/AddOpsRewrite_Leaf_1_Add"], "attr": {"_grappler_ArithmeticOptimizer_AddOpsRewriteStage": {"b": true}, "T": {"type": "DT_FLOAT"}}}, {"name": "StatefulPartitionedCall/inference_model_1/mobilenetv2_1.00_224_1/block_5_expand_relu_1/Relu6", "op": "_FusedConv2D", "input": ["StatefulPartitionedCall/inference_model_1/mobilenetv2_1.00_224_1/block_4_add_1/ArithmeticOptimizer/AddOpsRewrite_Add", "StatefulPartitionedCall/inference_model_1/mobilenetv2_1.00_224_1/block_5_expand_1/convolution/merged_input", "StatefulPartitionedCall/inference_model_1/mobilenetv2_1.00_224_1/block_5_expand_BN_1/batchnorm/sub"], "device": "/device:CPU:0", "attr": {"explicit_paddings": {"list": {}}, "epsilon": {"f": 0.0}, "filter_format": {"s": "SFdJTw=="}, "leakyrelu_alpha": {"f": 0.2}, "use_cudnn_on_gpu": {"b": true}, "num_host_args": {"i": "0"}, "data_format": {"s": "TkhXQw=="}, "num_args": {"i": "1"}, "_input_shapes": {"list": {"shape": [{"dim": [{"size": "-2"}, {"size": "-5"}, {"size": "-6"}, {"size": "32"}]}, {"dim": [{"size": "1"}, {"size": "1"}, {"size": "32"}, {"size": "192"}]}]}}, "TArgs": {"list": {"type": ["DT_FLOAT"]}}, "padding": {"s": "U0FNRQ=="}, "fused_ops": {"list": {"s": ["Qmlhc0FkZA==", "UmVsdTY="]}}, "strides": {"list": {"i": ["1", "1", "1", "1"]}}, "T": {"type": "DT_FLOAT"}, "dilations": {"list": {"i": ["1", "1", "1", "1"]}}}}, {"name": "StatefulPartitionedCall/inference_model_1/mobilenetv2_1.00_224_1/block_5_depthwise_1/depthwise", "op": "DepthwiseConv2dNative", "input": ["StatefulPartitionedCall/inference_model_1/mobilenetv2_1.00_224_1/block_5_expand_relu_1/Relu6", "StatefulPartitionedCall/inference_model_1/mobilenetv2_1.00_224_1/block_5_depthwise_1/depthwise/ReadVariableOp"], "attr": {"explicit_paddings": {"list": {}}, "padding": {"s": "U0FNRQ=="}, "data_format": {"s": "TkhXQw=="}, "T": {"type": "DT_FLOAT"}, "strides": {"list": {"i": ["1", "1", "1", "1"]}}, "dilations": {"list": {"i": ["1", "1", "1", "1"]}}, "_input_shapes": {"list": {"shape": [{"dim": [{"size": "-2"}, {"size": "-5"}, {"size": "-6"}, {"size": "192"}]}, {"dim": [{"size": "3"}, {"size": "3"}, {"size": "192"}, {"size": "1"}]}]}}}}, {"name": "StatefulPartitionedCall/inference_model_1/mobilenetv2_1.00_224_1/block_5_depthwise_BN_1/batchnorm/mul_1", "op": "Mul", "input": ["StatefulPartitionedCall/inference_model_1/mobilenetv2_1.00_224_1/block_5_depthwise_1/depthwise", "StatefulPartitionedCall/inference_model_1/mobilenetv2_1.00_224_1/block_5_depthwise_BN_1/batchnorm/mul"], "attr": {"T": {"type": "DT_FLOAT"}}}, {"name": "StatefulPartitionedCall/inference_model_1/mobilenetv2_1.00_224_1/block_5_depthwise_BN_1/batchnorm/add_1", "op": "AddV2", "input": ["StatefulPartitionedCall/inference_model_1/mobilenetv2_1.00_224_1/block_5_depthwise_BN_1/batchnorm/mul_1", "StatefulPartitionedCall/inference_model_1/mobilenetv2_1.00_224_1/block_5_depthwise_BN_1/batchnorm/sub"], "attr": {"T": {"type": "DT_FLOAT"}}}, {"name": "StatefulPartitionedCall/inference_model_1/mobilenetv2_1.00_224_1/block_5_depthwise_relu_1/Relu6", "op": "Relu6", "input": ["StatefulPartitionedCall/inference_model_1/mobilenetv2_1.00_224_1/block_5_depthwise_BN_1/batchnorm/add_1"], "attr": {"T": {"type": "DT_FLOAT"}}}, {"name": "StatefulPartitionedCall/inference_model_1/mobilenetv2_1.00_224_1/block_5_project_BN_1/batchnorm/mul_1", "op": "Conv2D", "input": ["StatefulPartitionedCall/inference_model_1/mobilenetv2_1.00_224_1/block_5_depthwise_relu_1/Relu6", "StatefulPartitionedCall/inference_model_1/mobilenetv2_1.00_224_1/block_5_project_1/convolution/merged_input"], "device": "/device:CPU:0", "attr": {"explicit_paddings": {"list": {}}, "_input_shapes": {"list": {"shape": [{"dim": [{"size": "-2"}, {"size": "-5"}, {"size": "-6"}, {"size": "192"}]}, {"dim": [{"size": "1"}, {"size": "1"}, {"size": "192"}, {"size": "32"}]}]}}, "use_cudnn_on_gpu": {"b": true}, "padding": {"s": "U0FNRQ=="}, "data_format": {"s": "TkhXQw=="}, "strides": {"list": {"i": ["1", "1", "1", "1"]}}, "T": {"type": "DT_FLOAT"}, "dilations": {"list": {"i": ["1", "1", "1", "1"]}}}}, {"name": "StatefulPartitionedCall/inference_model_1/mobilenetv2_1.00_224_1/block_5_add_1/ArithmeticOptimizer/AddOpsRewrite_Leaf_1_Add", "op": "AddN", "input": ["StatefulPartitionedCall/inference_model_1/mobilenetv2_1.00_224_1/block_4_add_1/ArithmeticOptimizer/AddOpsRewrite_Add", "StatefulPartitionedCall/inference_model_1/mobilenetv2_1.00_224_1/block_5_project_BN_1/batchnorm/mul_1"], "attr": {"_grappler_ArithmeticOptimizer_AddOpsRewriteStage": {"b": true}, "T": {"type": "DT_FLOAT"}, "N": {"i": "2"}}}, {"name": "StatefulPartitionedCall/inference_model_1/mobilenetv2_1.00_224_1/block_5_add_1/ArithmeticOptimizer/AddOpsRewrite_Add", "op": "AddV2", "input": ["StatefulPartitionedCall/inference_model_1/mobilenetv2_1.00_224_1/block_5_project_BN_1/batchnorm/sub", "StatefulPartitionedCall/inference_model_1/mobilenetv2_1.00_224_1/block_5_add_1/ArithmeticOptimizer/AddOpsRewrite_Leaf_1_Add"], "attr": {"_grappler_ArithmeticOptimizer_AddOpsRewriteStage": {"b": true}, "T": {"type": "DT_FLOAT"}}}, {"name": "StatefulPartitionedCall/inference_model_1/mobilenetv2_1.00_224_1/block_6_expand_relu_1/Relu6", "op": "_FusedConv2D", "input": ["StatefulPartitionedCall/inference_model_1/mobilenetv2_1.00_224_1/block_5_add_1/ArithmeticOptimizer/AddOpsRewrite_Add", "StatefulPartitionedCall/inference_model_1/mobilenetv2_1.00_224_1/block_6_expand_1/convolution/merged_input", "StatefulPartitionedCall/inference_model_1/mobilenetv2_1.00_224_1/block_6_expand_BN_1/batchnorm/sub"], "device": "/device:CPU:0", "attr": {"explicit_paddings": {"list": {}}, "epsilon": {"f": 0.0}, "filter_format": {"s": "SFdJTw=="}, "leakyrelu_alpha": {"f": 0.2}, "_input_shapes": {"list": {"shape": [{"dim": [{"size": "-2"}, {"size": "-5"}, {"size": "-6"}, {"size": "32"}]}, {"dim": [{"size": "1"}, {"size": "1"}, {"size": "32"}, {"size": "192"}]}]}}, "num_host_args": {"i": "0"}, "data_format": {"s": "TkhXQw=="}, "num_args": {"i": "1"}, "use_cudnn_on_gpu": {"b": true}, "TArgs": {"list": {"type": ["DT_FLOAT"]}}, "padding": {"s": "U0FNRQ=="}, "fused_ops": {"list": {"s": ["Qmlhc0FkZA==", "UmVsdTY="]}}, "strides": {"list": {"i": ["1", "1", "1", "1"]}}, "T": {"type": "DT_FLOAT"}, "dilations": {"list": {"i": ["1", "1", "1", "1"]}}}}, {"name": "StatefulPartitionedCall/inference_model_1/mobilenetv2_1.00_224_1/block_6_pad_1/Pad", "op": "Pad", "input": ["StatefulPartitionedCall/inference_model_1/mobilenetv2_1.00_224_1/block_6_expand_relu_1/Relu6", "StatefulPartitionedCall/inference_model_1/mobilenetv2_1.00_224_1/block_6_pad_1/Const"], "attr": {"T": {"type": "DT_FLOAT"}, "Tpaddings": {"type": "DT_INT32"}}}, {"name": "StatefulPartitionedCall/inference_model_1/mobilenetv2_1.00_224_1/block_6_depthwise_1/depthwise", "op": "DepthwiseConv2dNative", "input": ["StatefulPartitionedCall/inference_model_1/mobilenetv2_1.00_224_1/block_6_pad_1/Pad", "StatefulPartitionedCall/inference_model_1/mobilenetv2_1.00_224_1/block_6_depthwise_1/depthwise/ReadVariableOp"], "attr": {"explicit_paddings": {"list": {}}, "data_format": {"s": "TkhXQw=="}, "padding": {"s": "VkFMSUQ="}, "strides": {"list": {"i": ["1", "2", "2", "1"]}}, "T": {"type": "DT_FLOAT"}, "dilations": {"list": {"i": ["1", "1", "1", "1"]}}, "_input_shapes": {"list": {"shape": [{"dim": [{"size": "-2"}, {"size": "-20"}, {"size": "-21"}, {"size": "192"}]}, {"dim": [{"size": "3"}, {"size": "3"}, {"size": "192"}, {"size": "1"}]}]}}}}, {"name": "StatefulPartitionedCall/inference_model_1/mobilenetv2_1.00_224_1/block_6_depthwise_BN_1/batchnorm/mul_1", "op": "Mul", "input": ["StatefulPartitionedCall/inference_model_1/mobilenetv2_1.00_224_1/block_6_depthwise_1/depthwise", "StatefulPartitionedCall/inference_model_1/mobilenetv2_1.00_224_1/block_6_depthwise_BN_1/batchnorm/mul"], "attr": {"T": {"type": "DT_FLOAT"}}}, {"name": "StatefulPartitionedCall/inference_model_1/mobilenetv2_1.00_224_1/block_6_depthwise_BN_1/batchnorm/add_1", "op": "AddV2", "input": ["StatefulPartitionedCall/inference_model_1/mobilenetv2_1.00_224_1/block_6_depthwise_BN_1/batchnorm/mul_1", "StatefulPartitionedCall/inference_model_1/mobilenetv2_1.00_224_1/block_6_depthwise_BN_1/batchnorm/sub"], "attr": {"T": {"type": "DT_FLOAT"}}}, {"name": "StatefulPartitionedCall/inference_model_1/mobilenetv2_1.00_224_1/block_6_depthwise_relu_1/Relu6", "op": "Relu6", "input": ["StatefulPartitionedCall/inference_model_1/mobilenetv2_1.00_224_1/block_6_depthwise_BN_1/batchnorm/add_1"], "attr": {"T": {"type": "DT_FLOAT"}}}, {"name": "StatefulPartitionedCall/inference_model_1/mobilenetv2_1.00_224_1/block_6_project_BN_1/batchnorm/add_1", "op": "_FusedConv2D", "input": ["StatefulPartitionedCall/inference_model_1/mobilenetv2_1.00_224_1/block_6_depthwise_relu_1/Relu6", "StatefulPartitionedCall/inference_model_1/mobilenetv2_1.00_224_1/block_6_project_1/convolution/merged_input", "StatefulPartitionedCall/inference_model_1/mobilenetv2_1.00_224_1/block_6_project_BN_1/batchnorm/sub"], "device": "/device:CPU:0", "attr": {"explicit_paddings": {"list": {}}, "epsilon": {"f": 0.0}, "filter_format": {"s": "SFdJTw=="}, "leakyrelu_alpha": {"f": 0.2}, "use_cudnn_on_gpu": {"b": true}, "num_host_args": {"i": "0"}, "data_format": {"s": "TkhXQw=="}, "num_args": {"i": "1"}, "_input_shapes": {"list": {"shape": [{"dim": [{"size": "-2"}, {"size": "-7"}, {"size": "-8"}, {"size": "192"}]}, {"dim": [{"size": "1"}, {"size": "1"}, {"size": "192"}, {"size": "64"}]}]}}, "TArgs": {"list": {"type": ["DT_FLOAT"]}}, "padding": {"s": "U0FNRQ=="}, "fused_ops": {"list": {"s": ["Qmlhc0FkZA=="]}}, "T": {"type": "DT_FLOAT"}, "strides": {"list": {"i": ["1", "1", "1", "1"]}}, "dilations": {"list": {"i": ["1", "1", "1", "1"]}}}}, {"name": "StatefulPartitionedCall/inference_model_1/mobilenetv2_1.00_224_1/block_7_expand_relu_1/Relu6", "op": "_FusedConv2D", "input": ["StatefulPartitionedCall/inference_model_1/mobilenetv2_1.00_224_1/block_6_project_BN_1/batchnorm/add_1", "StatefulPartitionedCall/inference_model_1/mobilenetv2_1.00_224_1/block_7_expand_1/convolution/merged_input", "StatefulPartitionedCall/inference_model_1/mobilenetv2_1.00_224_1/block_7_expand_BN_1/batchnorm/sub"], "device": "/device:CPU:0", "attr": {"explicit_paddings": {"list": {}}, "epsilon": {"f": 0.0}, "filter_format": {"s": "SFdJTw=="}, "leakyrelu_alpha": {"f": 0.2}, "_input_shapes": {"list": {"shape": [{"dim": [{"size": "-2"}, {"size": "-7"}, {"size": "-8"}, {"size": "64"}]}, {"dim": [{"size": "1"}, {"size": "1"}, {"size": "64"}, {"size": "384"}]}]}}, "num_host_args": {"i": "0"}, "data_format": {"s": "TkhXQw=="}, "num_args": {"i": "1"}, "use_cudnn_on_gpu": {"b": true}, "TArgs": {"list": {"type": ["DT_FLOAT"]}}, "padding": {"s": "U0FNRQ=="}, "fused_ops": {"list": {"s": ["Qmlhc0FkZA==", "UmVsdTY="]}}, "strides": {"list": {"i": ["1", "1", "1", "1"]}}, "T": {"type": "DT_FLOAT"}, "dilations": {"list": {"i": ["1", "1", "1", "1"]}}}}, {"name": "StatefulPartitionedCall/inference_model_1/mobilenetv2_1.00_224_1/block_7_depthwise_1/depthwise", "op": "DepthwiseConv2dNative", "input": ["StatefulPartitionedCall/inference_model_1/mobilenetv2_1.00_224_1/block_7_expand_relu_1/Relu6", "StatefulPartitionedCall/inference_model_1/mobilenetv2_1.00_224_1/block_7_depthwise_1/depthwise/ReadVariableOp"], "attr": {"explicit_paddings": {"list": {}}, "data_format": {"s": "TkhXQw=="}, "padding": {"s": "U0FNRQ=="}, "T": {"type": "DT_FLOAT"}, "strides": {"list": {"i": ["1", "1", "1", "1"]}}, "dilations": {"list": {"i": ["1", "1", "1", "1"]}}, "_input_shapes": {"list": {"shape": [{"dim": [{"size": "-2"}, {"size": "-7"}, {"size": "-8"}, {"size": "384"}]}, {"dim": [{"size": "3"}, {"size": "3"}, {"size": "384"}, {"size": "1"}]}]}}}}, {"name": "StatefulPartitionedCall/inference_model_1/mobilenetv2_1.00_224_1/block_7_depthwise_BN_1/batchnorm/mul_1", "op": "Mul", "input": ["StatefulPartitionedCall/inference_model_1/mobilenetv2_1.00_224_1/block_7_depthwise_1/depthwise", "StatefulPartitionedCall/inference_model_1/mobilenetv2_1.00_224_1/block_7_depthwise_BN_1/batchnorm/mul"], "attr": {"T": {"type": "DT_FLOAT"}}}, {"name": "StatefulPartitionedCall/inference_model_1/mobilenetv2_1.00_224_1/block_7_depthwise_BN_1/batchnorm/add_1", "op": "AddV2", "input": ["StatefulPartitionedCall/inference_model_1/mobilenetv2_1.00_224_1/block_7_depthwise_BN_1/batchnorm/mul_1", "StatefulPartitionedCall/inference_model_1/mobilenetv2_1.00_224_1/block_7_depthwise_BN_1/batchnorm/sub"], "attr": {"T": {"type": "DT_FLOAT"}}}, {"name": "StatefulPartitionedCall/inference_model_1/mobilenetv2_1.00_224_1/block_7_depthwise_relu_1/Relu6", "op": "Relu6", "input": ["StatefulPartitionedCall/inference_model_1/mobilenetv2_1.00_224_1/block_7_depthwise_BN_1/batchnorm/add_1"], "attr": {"T": {"type": "DT_FLOAT"}}}, {"name": "StatefulPartitionedCall/inference_model_1/mobilenetv2_1.00_224_1/block_7_project_BN_1/batchnorm/mul_1", "op": "Conv2D", "input": ["StatefulPartitionedCall/inference_model_1/mobilenetv2_1.00_224_1/block_7_depthwise_relu_1/Relu6", "StatefulPartitionedCall/inference_model_1/mobilenetv2_1.00_224_1/block_7_project_1/convolution/merged_input"], "device": "/device:CPU:0", "attr": {"explicit_paddings": {"list": {}}, "_input_shapes": {"list": {"shape": [{"dim": [{"size": "-2"}, {"size": "-7"}, {"size": "-8"}, {"size": "384"}]}, {"dim": [{"size": "1"}, {"size": "1"}, {"size": "384"}, {"size": "64"}]}]}}, "use_cudnn_on_gpu": {"b": true}, "data_format": {"s": "TkhXQw=="}, "padding": {"s": "U0FNRQ=="}, "T": {"type": "DT_FLOAT"}, "strides": {"list": {"i": ["1", "1", "1", "1"]}}, "dilations": {"list": {"i": ["1", "1", "1", "1"]}}}}, {"name": "StatefulPartitionedCall/inference_model_1/mobilenetv2_1.00_224_1/block_7_add_1/ArithmeticOptimizer/AddOpsRewrite_Leaf_1_Add", "op": "AddN", "input": ["StatefulPartitionedCall/inference_model_1/mobilenetv2_1.00_224_1/block_6_project_BN_1/batchnorm/add_1", "StatefulPartitionedCall/inference_model_1/mobilenetv2_1.00_224_1/block_7_project_BN_1/batchnorm/mul_1"], "attr": {"_grappler_ArithmeticOptimizer_AddOpsRewriteStage": {"b": true}, "T": {"type": "DT_FLOAT"}, "N": {"i": "2"}}}, {"name": "StatefulPartitionedCall/inference_model_1/mobilenetv2_1.00_224_1/block_7_add_1/ArithmeticOptimizer/AddOpsRewrite_Add", "op": "AddV2", "input": ["StatefulPartitionedCall/inference_model_1/mobilenetv2_1.00_224_1/block_7_project_BN_1/batchnorm/sub", "StatefulPartitionedCall/inference_model_1/mobilenetv2_1.00_224_1/block_7_add_1/ArithmeticOptimizer/AddOpsRewrite_Leaf_1_Add"], "attr": {"_grappler_ArithmeticOptimizer_AddOpsRewriteStage": {"b": true}, "T": {"type": "DT_FLOAT"}}}, {"name": "StatefulPartitionedCall/inference_model_1/mobilenetv2_1.00_224_1/block_8_expand_relu_1/Relu6", "op": "_FusedConv2D", "input": ["StatefulPartitionedCall/inference_model_1/mobilenetv2_1.00_224_1/block_7_add_1/ArithmeticOptimizer/AddOpsRewrite_Add", "StatefulPartitionedCall/inference_model_1/mobilenetv2_1.00_224_1/block_8_expand_1/convolution/merged_input", "StatefulPartitionedCall/inference_model_1/mobilenetv2_1.00_224_1/block_8_expand_BN_1/batchnorm/sub"], "device": "/device:CPU:0", "attr": {"explicit_paddings": {"list": {}}, "epsilon": {"f": 0.0}, "filter_format": {"s": "SFdJTw=="}, "leakyrelu_alpha": {"f": 0.2}, "_input_shapes": {"list": {"shape": [{"dim": [{"size": "-2"}, {"size": "-7"}, {"size": "-8"}, {"size": "64"}]}, {"dim": [{"size": "1"}, {"size": "1"}, {"size": "64"}, {"size": "384"}]}]}}, "num_host_args": {"i": "0"}, "data_format": {"s": "TkhXQw=="}, "num_args": {"i": "1"}, "use_cudnn_on_gpu": {"b": true}, "TArgs": {"list": {"type": ["DT_FLOAT"]}}, "padding": {"s": "U0FNRQ=="}, "fused_ops": {"list": {"s": ["Qmlhc0FkZA==", "UmVsdTY="]}}, "strides": {"list": {"i": ["1", "1", "1", "1"]}}, "T": {"type": "DT_FLOAT"}, "dilations": {"list": {"i": ["1", "1", "1", "1"]}}}}, {"name": "StatefulPartitionedCall/inference_model_1/mobilenetv2_1.00_224_1/block_8_depthwise_1/depthwise", "op": "DepthwiseConv2dNative", "input": ["StatefulPartitionedCall/inference_model_1/mobilenetv2_1.00_224_1/block_8_expand_relu_1/Relu6", "StatefulPartitionedCall/inference_model_1/mobilenetv2_1.00_224_1/block_8_depthwise_1/depthwise/ReadVariableOp"], "attr": {"explicit_paddings": {"list": {}}, "data_format": {"s": "TkhXQw=="}, "padding": {"s": "U0FNRQ=="}, "T": {"type": "DT_FLOAT"}, "strides": {"list": {"i": ["1", "1", "1", "1"]}}, "dilations": {"list": {"i": ["1", "1", "1", "1"]}}, "_input_shapes": {"list": {"shape": [{"dim": [{"size": "-2"}, {"size": "-7"}, {"size": "-8"}, {"size": "384"}]}, {"dim": [{"size": "3"}, {"size": "3"}, {"size": "384"}, {"size": "1"}]}]}}}}, {"name": "StatefulPartitionedCall/inference_model_1/mobilenetv2_1.00_224_1/block_8_depthwise_BN_1/batchnorm/mul_1", "op": "Mul", "input": ["StatefulPartitionedCall/inference_model_1/mobilenetv2_1.00_224_1/block_8_depthwise_1/depthwise", "StatefulPartitionedCall/inference_model_1/mobilenetv2_1.00_224_1/block_8_depthwise_BN_1/batchnorm/mul"], "attr": {"T": {"type": "DT_FLOAT"}}}, {"name": "StatefulPartitionedCall/inference_model_1/mobilenetv2_1.00_224_1/block_8_depthwise_BN_1/batchnorm/add_1", "op": "AddV2", "input": ["StatefulPartitionedCall/inference_model_1/mobilenetv2_1.00_224_1/block_8_depthwise_BN_1/batchnorm/mul_1", "StatefulPartitionedCall/inference_model_1/mobilenetv2_1.00_224_1/block_8_depthwise_BN_1/batchnorm/sub"], "attr": {"T": {"type": "DT_FLOAT"}}}, {"name": "StatefulPartitionedCall/inference_model_1/mobilenetv2_1.00_224_1/block_8_depthwise_relu_1/Relu6", "op": "Relu6", "input": ["StatefulPartitionedCall/inference_model_1/mobilenetv2_1.00_224_1/block_8_depthwise_BN_1/batchnorm/add_1"], "attr": {"T": {"type": "DT_FLOAT"}}}, {"name": "StatefulPartitionedCall/inference_model_1/mobilenetv2_1.00_224_1/block_8_project_BN_1/batchnorm/mul_1", "op": "Conv2D", "input": ["StatefulPartitionedCall/inference_model_1/mobilenetv2_1.00_224_1/block_8_depthwise_relu_1/Relu6", "StatefulPartitionedCall/inference_model_1/mobilenetv2_1.00_224_1/block_8_project_1/convolution/merged_input"], "device": "/device:CPU:0", "attr": {"explicit_paddings": {"list": {}}, "use_cudnn_on_gpu": {"b": true}, "_input_shapes": {"list": {"shape": [{"dim": [{"size": "-2"}, {"size": "-7"}, {"size": "-8"}, {"size": "384"}]}, {"dim": [{"size": "1"}, {"size": "1"}, {"size": "384"}, {"size": "64"}]}]}}, "data_format": {"s": "TkhXQw=="}, "padding": {"s": "U0FNRQ=="}, "T": {"type": "DT_FLOAT"}, "strides": {"list": {"i": ["1", "1", "1", "1"]}}, "dilations": {"list": {"i": ["1", "1", "1", "1"]}}}}, {"name": "StatefulPartitionedCall/inference_model_1/mobilenetv2_1.00_224_1/block_8_add_1/ArithmeticOptimizer/AddOpsRewrite_Leaf_1_Add", "op": "AddN", "input": ["StatefulPartitionedCall/inference_model_1/mobilenetv2_1.00_224_1/block_7_add_1/ArithmeticOptimizer/AddOpsRewrite_Add", "StatefulPartitionedCall/inference_model_1/mobilenetv2_1.00_224_1/block_8_project_BN_1/batchnorm/mul_1"], "attr": {"_grappler_ArithmeticOptimizer_AddOpsRewriteStage": {"b": true}, "T": {"type": "DT_FLOAT"}, "N": {"i": "2"}}}, {"name": "StatefulPartitionedCall/inference_model_1/mobilenetv2_1.00_224_1/block_8_add_1/ArithmeticOptimizer/AddOpsRewrite_Add", "op": "AddV2", "input": ["StatefulPartitionedCall/inference_model_1/mobilenetv2_1.00_224_1/block_8_project_BN_1/batchnorm/sub", "StatefulPartitionedCall/inference_model_1/mobilenetv2_1.00_224_1/block_8_add_1/ArithmeticOptimizer/AddOpsRewrite_Leaf_1_Add"], "attr": {"_grappler_ArithmeticOptimizer_AddOpsRewriteStage": {"b": true}, "T": {"type": "DT_FLOAT"}}}, {"name": "StatefulPartitionedCall/inference_model_1/mobilenetv2_1.00_224_1/block_9_expand_relu_1/Relu6", "op": "_FusedConv2D", "input": ["StatefulPartitionedCall/inference_model_1/mobilenetv2_1.00_224_1/block_8_add_1/ArithmeticOptimizer/AddOpsRewrite_Add", "StatefulPartitionedCall/inference_model_1/mobilenetv2_1.00_224_1/block_9_expand_1/convolution/merged_input", "StatefulPartitionedCall/inference_model_1/mobilenetv2_1.00_224_1/block_9_expand_BN_1/batchnorm/sub"], "device": "/device:CPU:0", "attr": {"explicit_paddings": {"list": {}}, "epsilon": {"f": 0.0}, "filter_format": {"s": "SFdJTw=="}, "leakyrelu_alpha": {"f": 0.2}, "use_cudnn_on_gpu": {"b": true}, "num_host_args": {"i": "0"}, "data_format": {"s": "TkhXQw=="}, "num_args": {"i": "1"}, "_input_shapes": {"list": {"shape": [{"dim": [{"size": "-2"}, {"size": "-7"}, {"size": "-8"}, {"size": "64"}]}, {"dim": [{"size": "1"}, {"size": "1"}, {"size": "64"}, {"size": "384"}]}]}}, "TArgs": {"list": {"type": ["DT_FLOAT"]}}, "padding": {"s": "U0FNRQ=="}, "fused_ops": {"list": {"s": ["Qmlhc0FkZA==", "UmVsdTY="]}}, "strides": {"list": {"i": ["1", "1", "1", "1"]}}, "T": {"type": "DT_FLOAT"}, "dilations": {"list": {"i": ["1", "1", "1", "1"]}}}}, {"name": "StatefulPartitionedCall/inference_model_1/mobilenetv2_1.00_224_1/block_9_depthwise_1/depthwise", "op": "DepthwiseConv2dNative", "input": ["StatefulPartitionedCall/inference_model_1/mobilenetv2_1.00_224_1/block_9_expand_relu_1/Relu6", "StatefulPartitionedCall/inference_model_1/mobilenetv2_1.00_224_1/block_9_depthwise_1/depthwise/ReadVariableOp"], "attr": {"explicit_paddings": {"list": {}}, "data_format": {"s": "TkhXQw=="}, "padding": {"s": "U0FNRQ=="}, "T": {"type": "DT_FLOAT"}, "strides": {"list": {"i": ["1", "1", "1", "1"]}}, "dilations": {"list": {"i": ["1", "1", "1", "1"]}}, "_input_shapes": {"list": {"shape": [{"dim": [{"size": "-2"}, {"size": "-7"}, {"size": "-8"}, {"size": "384"}]}, {"dim": [{"size": "3"}, {"size": "3"}, {"size": "384"}, {"size": "1"}]}]}}}}, {"name": "StatefulPartitionedCall/inference_model_1/mobilenetv2_1.00_224_1/block_9_depthwise_BN_1/batchnorm/mul_1", "op": "Mul", "input": ["StatefulPartitionedCall/inference_model_1/mobilenetv2_1.00_224_1/block_9_depthwise_1/depthwise", "StatefulPartitionedCall/inference_model_1/mobilenetv2_1.00_224_1/block_9_depthwise_BN_1/batchnorm/mul"], "attr": {"T": {"type": "DT_FLOAT"}}}, {"name": "StatefulPartitionedCall/inference_model_1/mobilenetv2_1.00_224_1/block_9_depthwise_BN_1/batchnorm/add_1", "op": "AddV2", "input": ["StatefulPartitionedCall/inference_model_1/mobilenetv2_1.00_224_1/block_9_depthwise_BN_1/batchnorm/mul_1", "StatefulPartitionedCall/inference_model_1/mobilenetv2_1.00_224_1/block_9_depthwise_BN_1/batchnorm/sub"], "attr": {"T": {"type": "DT_FLOAT"}}}, {"name": "StatefulPartitionedCall/inference_model_1/mobilenetv2_1.00_224_1/block_9_depthwise_relu_1/Relu6", "op": "Relu6", "input": ["StatefulPartitionedCall/inference_model_1/mobilenetv2_1.00_224_1/block_9_depthwise_BN_1/batchnorm/add_1"], "attr": {"T": {"type": "DT_FLOAT"}}}, {"name": "StatefulPartitionedCall/inference_model_1/mobilenetv2_1.00_224_1/block_9_project_BN_1/batchnorm/mul_1", "op": "Conv2D", "input": ["StatefulPartitionedCall/inference_model_1/mobilenetv2_1.00_224_1/block_9_depthwise_relu_1/Relu6", "StatefulPartitionedCall/inference_model_1/mobilenetv2_1.00_224_1/block_9_project_1/convolution/merged_input"], "device": "/device:CPU:0", "attr": {"explicit_paddings": {"list": {}}, "_input_shapes": {"list": {"shape": [{"dim": [{"size": "-2"}, {"size": "-7"}, {"size": "-8"}, {"size": "384"}]}, {"dim": [{"size": "1"}, {"size": "1"}, {"size": "384"}, {"size": "64"}]}]}}, "use_cudnn_on_gpu": {"b": true}, "data_format": {"s": "TkhXQw=="}, "padding": {"s": "U0FNRQ=="}, "strides": {"list": {"i": ["1", "1", "1", "1"]}}, "T": {"type": "DT_FLOAT"}, "dilations": {"list": {"i": ["1", "1", "1", "1"]}}}}, {"name": "StatefulPartitionedCall/inference_model_1/mobilenetv2_1.00_224_1/block_9_add_1/ArithmeticOptimizer/AddOpsRewrite_Leaf_1_Add", "op": "AddN", "input": ["StatefulPartitionedCall/inference_model_1/mobilenetv2_1.00_224_1/block_8_add_1/ArithmeticOptimizer/AddOpsRewrite_Add", "StatefulPartitionedCall/inference_model_1/mobilenetv2_1.00_224_1/block_9_project_BN_1/batchnorm/mul_1"], "attr": {"_grappler_ArithmeticOptimizer_AddOpsRewriteStage": {"b": true}, "T": {"type": "DT_FLOAT"}, "N": {"i": "2"}}}, {"name": "StatefulPartitionedCall/inference_model_1/mobilenetv2_1.00_224_1/block_9_add_1/ArithmeticOptimizer/AddOpsRewrite_Add", "op": "AddV2", "input": ["StatefulPartitionedCall/inference_model_1/mobilenetv2_1.00_224_1/block_9_project_BN_1/batchnorm/sub", "StatefulPartitionedCall/inference_model_1/mobilenetv2_1.00_224_1/block_9_add_1/ArithmeticOptimizer/AddOpsRewrite_Leaf_1_Add"], "attr": {"_grappler_ArithmeticOptimizer_AddOpsRewriteStage": {"b": true}, "T": {"type": "DT_FLOAT"}}}, {"name": "StatefulPartitionedCall/inference_model_1/mobilenetv2_1.00_224_1/block_10_expand_relu_1/Relu6", "op": "_FusedConv2D", "input": ["StatefulPartitionedCall/inference_model_1/mobilenetv2_1.00_224_1/block_9_add_1/ArithmeticOptimizer/AddOpsRewrite_Add", "StatefulPartitionedCall/inference_model_1/mobilenetv2_1.00_224_1/block_10_expand_1/convolution/merged_input", "StatefulPartitionedCall/inference_model_1/mobilenetv2_1.00_224_1/block_10_expand_BN_1/batchnorm/sub"], "device": "/device:CPU:0", "attr": {"explicit_paddings": {"list": {}}, "epsilon": {"f": 0.0}, "filter_format": {"s": "SFdJTw=="}, "leakyrelu_alpha": {"f": 0.2}, "use_cudnn_on_gpu": {"b": true}, "num_host_args": {"i": "0"}, "data_format": {"s": "TkhXQw=="}, "num_args": {"i": "1"}, "_input_shapes": {"list": {"shape": [{"dim": [{"size": "-2"}, {"size": "-7"}, {"size": "-8"}, {"size": "64"}]}, {"dim": [{"size": "1"}, {"size": "1"}, {"size": "64"}, {"size": "384"}]}]}}, "TArgs": {"list": {"type": ["DT_FLOAT"]}}, "padding": {"s": "U0FNRQ=="}, "fused_ops": {"list": {"s": ["Qmlhc0FkZA==", "UmVsdTY="]}}, "strides": {"list": {"i": ["1", "1", "1", "1"]}}, "T": {"type": "DT_FLOAT"}, "dilations": {"list": {"i": ["1", "1", "1", "1"]}}}}, {"name": "StatefulPartitionedCall/inference_model_1/mobilenetv2_1.00_224_1/block_10_depthwise_1/depthwise", "op": "DepthwiseConv2dNative", "input": ["StatefulPartitionedCall/inference_model_1/mobilenetv2_1.00_224_1/block_10_expand_relu_1/Relu6", "StatefulPartitionedCall/inference_model_1/mobilenetv2_1.00_224_1/block_10_depthwise_1/depthwise/ReadVariableOp"], "attr": {"explicit_paddings": {"list": {}}, "data_format": {"s": "TkhXQw=="}, "padding": {"s": "U0FNRQ=="}, "T": {"type": "DT_FLOAT"}, "strides": {"list": {"i": ["1", "1", "1", "1"]}}, "dilations": {"list": {"i": ["1", "1", "1", "1"]}}, "_input_shapes": {"list": {"shape": [{"dim": [{"size": "-2"}, {"size": "-7"}, {"size": "-8"}, {"size": "384"}]}, {"dim": [{"size": "3"}, {"size": "3"}, {"size": "384"}, {"size": "1"}]}]}}}}, {"name": "StatefulPartitionedCall/inference_model_1/mobilenetv2_1.00_224_1/block_10_depthwise_BN_1/batchnorm/mul_1", "op": "Mul", "input": ["StatefulPartitionedCall/inference_model_1/mobilenetv2_1.00_224_1/block_10_depthwise_1/depthwise", "StatefulPartitionedCall/inference_model_1/mobilenetv2_1.00_224_1/block_10_depthwise_BN_1/batchnorm/mul"], "attr": {"T": {"type": "DT_FLOAT"}}}, {"name": "StatefulPartitionedCall/inference_model_1/mobilenetv2_1.00_224_1/block_10_depthwise_BN_1/batchnorm/add_1", "op": "AddV2", "input": ["StatefulPartitionedCall/inference_model_1/mobilenetv2_1.00_224_1/block_10_depthwise_BN_1/batchnorm/mul_1", "StatefulPartitionedCall/inference_model_1/mobilenetv2_1.00_224_1/block_10_depthwise_BN_1/batchnorm/sub"], "attr": {"T": {"type": "DT_FLOAT"}}}, {"name": "StatefulPartitionedCall/inference_model_1/mobilenetv2_1.00_224_1/block_10_depthwise_relu_1/Relu6", "op": "Relu6", "input": ["StatefulPartitionedCall/inference_model_1/mobilenetv2_1.00_224_1/block_10_depthwise_BN_1/batchnorm/add_1"], "attr": {"T": {"type": "DT_FLOAT"}}}, {"name": "StatefulPartitionedCall/inference_model_1/mobilenetv2_1.00_224_1/block_10_project_BN_1/batchnorm/add_1", "op": "_FusedConv2D", "input": ["StatefulPartitionedCall/inference_model_1/mobilenetv2_1.00_224_1/block_10_depthwise_relu_1/Relu6", "StatefulPartitionedCall/inference_model_1/mobilenetv2_1.00_224_1/block_10_project_1/convolution/merged_input", "StatefulPartitionedCall/inference_model_1/mobilenetv2_1.00_224_1/block_10_project_BN_1/batchnorm/sub"], "device": "/device:CPU:0", "attr": {"explicit_paddings": {"list": {}}, "epsilon": {"f": 0.0}, "filter_format": {"s": "SFdJTw=="}, "leakyrelu_alpha": {"f": 0.2}, "_input_shapes": {"list": {"shape": [{"dim": [{"size": "-2"}, {"size": "-7"}, {"size": "-8"}, {"size": "384"}]}, {"dim": [{"size": "1"}, {"size": "1"}, {"size": "384"}, {"size": "96"}]}]}}, "num_host_args": {"i": "0"}, "data_format": {"s": "TkhXQw=="}, "num_args": {"i": "1"}, "use_cudnn_on_gpu": {"b": true}, "TArgs": {"list": {"type": ["DT_FLOAT"]}}, "padding": {"s": "U0FNRQ=="}, "fused_ops": {"list": {"s": ["Qmlhc0FkZA=="]}}, "strides": {"list": {"i": ["1", "1", "1", "1"]}}, "T": {"type": "DT_FLOAT"}, "dilations": {"list": {"i": ["1", "1", "1", "1"]}}}}, {"name": "StatefulPartitionedCall/inference_model_1/mobilenetv2_1.00_224_1/block_11_expand_relu_1/Relu6", "op": "_FusedConv2D", "input": ["StatefulPartitionedCall/inference_model_1/mobilenetv2_1.00_224_1/block_10_project_BN_1/batchnorm/add_1", "StatefulPartitionedCall/inference_model_1/mobilenetv2_1.00_224_1/block_11_expand_1/convolution/merged_input", "StatefulPartitionedCall/inference_model_1/mobilenetv2_1.00_224_1/block_11_expand_BN_1/batchnorm/sub"], "device": "/device:CPU:0", "attr": {"explicit_paddings": {"list": {}}, "epsilon": {"f": 0.0}, "filter_format": {"s": "SFdJTw=="}, "leakyrelu_alpha": {"f": 0.2}, "_input_shapes": {"list": {"shape": [{"dim": [{"size": "-2"}, {"size": "-7"}, {"size": "-8"}, {"size": "96"}]}, {"dim": [{"size": "1"}, {"size": "1"}, {"size": "96"}, {"size": "576"}]}]}}, "num_host_args": {"i": "0"}, "data_format": {"s": "TkhXQw=="}, "num_args": {"i": "1"}, "use_cudnn_on_gpu": {"b": true}, "TArgs": {"list": {"type": ["DT_FLOAT"]}}, "padding": {"s": "U0FNRQ=="}, "fused_ops": {"list": {"s": ["Qmlhc0FkZA==", "UmVsdTY="]}}, "strides": {"list": {"i": ["1", "1", "1", "1"]}}, "T": {"type": "DT_FLOAT"}, "dilations": {"list": {"i": ["1", "1", "1", "1"]}}}}, {"name": "StatefulPartitionedCall/inference_model_1/mobilenetv2_1.00_224_1/block_11_depthwise_1/depthwise", "op": "DepthwiseConv2dNative", "input": ["StatefulPartitionedCall/inference_model_1/mobilenetv2_1.00_224_1/block_11_expand_relu_1/Relu6", "StatefulPartitionedCall/inference_model_1/mobilenetv2_1.00_224_1/block_11_depthwise_1/depthwise/ReadVariableOp"], "attr": {"explicit_paddings": {"list": {}}, "data_format": {"s": "TkhXQw=="}, "padding": {"s": "U0FNRQ=="}, "strides": {"list": {"i": ["1", "1", "1", "1"]}}, "T": {"type": "DT_FLOAT"}, "dilations": {"list": {"i": ["1", "1", "1", "1"]}}, "_input_shapes": {"list": {"shape": [{"dim": [{"size": "-2"}, {"size": "-7"}, {"size": "-8"}, {"size": "576"}]}, {"dim": [{"size": "3"}, {"size": "3"}, {"size": "576"}, {"size": "1"}]}]}}}}, {"name": "StatefulPartitionedCall/inference_model_1/mobilenetv2_1.00_224_1/block_11_depthwise_BN_1/batchnorm/mul_1", "op": "Mul", "input": ["StatefulPartitionedCall/inference_model_1/mobilenetv2_1.00_224_1/block_11_depthwise_1/depthwise", "StatefulPartitionedCall/inference_model_1/mobilenetv2_1.00_224_1/block_11_depthwise_BN_1/batchnorm/mul"], "attr": {"T": {"type": "DT_FLOAT"}}}, {"name": "StatefulPartitionedCall/inference_model_1/mobilenetv2_1.00_224_1/block_11_depthwise_BN_1/batchnorm/add_1", "op": "AddV2", "input": ["StatefulPartitionedCall/inference_model_1/mobilenetv2_1.00_224_1/block_11_depthwise_BN_1/batchnorm/mul_1", "StatefulPartitionedCall/inference_model_1/mobilenetv2_1.00_224_1/block_11_depthwise_BN_1/batchnorm/sub"], "attr": {"T": {"type": "DT_FLOAT"}}}, {"name": "StatefulPartitionedCall/inference_model_1/mobilenetv2_1.00_224_1/block_11_depthwise_relu_1/Relu6", "op": "Relu6", "input": ["StatefulPartitionedCall/inference_model_1/mobilenetv2_1.00_224_1/block_11_depthwise_BN_1/batchnorm/add_1"], "attr": {"T": {"type": "DT_FLOAT"}}}, {"name": "StatefulPartitionedCall/inference_model_1/mobilenetv2_1.00_224_1/block_11_project_BN_1/batchnorm/mul_1", "op": "Conv2D", "input": ["StatefulPartitionedCall/inference_model_1/mobilenetv2_1.00_224_1/block_11_depthwise_relu_1/Relu6", "StatefulPartitionedCall/inference_model_1/mobilenetv2_1.00_224_1/block_11_project_1/convolution/merged_input"], "device": "/device:CPU:0", "attr": {"explicit_paddings": {"list": {}}, "use_cudnn_on_gpu": {"b": true}, "_input_shapes": {"list": {"shape": [{"dim": [{"size": "-2"}, {"size": "-7"}, {"size": "-8"}, {"size": "576"}]}, {"dim": [{"size": "1"}, {"size": "1"}, {"size": "576"}, {"size": "96"}]}]}}, "padding": {"s": "U0FNRQ=="}, "data_format": {"s": "TkhXQw=="}, "strides": {"list": {"i": ["1", "1", "1", "1"]}}, "T": {"type": "DT_FLOAT"}, "dilations": {"list": {"i": ["1", "1", "1", "1"]}}}}, {"name": "StatefulPartitionedCall/inference_model_1/mobilenetv2_1.00_224_1/block_11_add_1/ArithmeticOptimizer/AddOpsRewrite_Leaf_1_Add", "op": "AddN", "input": ["StatefulPartitionedCall/inference_model_1/mobilenetv2_1.00_224_1/block_10_project_BN_1/batchnorm/add_1", "StatefulPartitionedCall/inference_model_1/mobilenetv2_1.00_224_1/block_11_project_BN_1/batchnorm/mul_1"], "attr": {"_grappler_ArithmeticOptimizer_AddOpsRewriteStage": {"b": true}, "T": {"type": "DT_FLOAT"}, "N": {"i": "2"}}}, {"name": "StatefulPartitionedCall/inference_model_1/mobilenetv2_1.00_224_1/block_11_add_1/ArithmeticOptimizer/AddOpsRewrite_Add", "op": "AddV2", "input": ["StatefulPartitionedCall/inference_model_1/mobilenetv2_1.00_224_1/block_11_project_BN_1/batchnorm/sub", "StatefulPartitionedCall/inference_model_1/mobilenetv2_1.00_224_1/block_11_add_1/ArithmeticOptimizer/AddOpsRewrite_Leaf_1_Add"], "attr": {"_grappler_ArithmeticOptimizer_AddOpsRewriteStage": {"b": true}, "T": {"type": "DT_FLOAT"}}}, {"name": "StatefulPartitionedCall/inference_model_1/mobilenetv2_1.00_224_1/block_12_expand_relu_1/Relu6", "op": "_FusedConv2D", "input": ["StatefulPartitionedCall/inference_model_1/mobilenetv2_1.00_224_1/block_11_add_1/ArithmeticOptimizer/AddOpsRewrite_Add", "StatefulPartitionedCall/inference_model_1/mobilenetv2_1.00_224_1/block_12_expand_1/convolution/merged_input", "StatefulPartitionedCall/inference_model_1/mobilenetv2_1.00_224_1/block_12_expand_BN_1/batchnorm/sub"], "device": "/device:CPU:0", "attr": {"explicit_paddings": {"list": {}}, "epsilon": {"f": 0.0}, "filter_format": {"s": "SFdJTw=="}, "leakyrelu_alpha": {"f": 0.2}, "use_cudnn_on_gpu": {"b": true}, "num_host_args": {"i": "0"}, "data_format": {"s": "TkhXQw=="}, "num_args": {"i": "1"}, "_input_shapes": {"list": {"shape": [{"dim": [{"size": "-2"}, {"size": "-7"}, {"size": "-8"}, {"size": "96"}]}, {"dim": [{"size": "1"}, {"size": "1"}, {"size": "96"}, {"size": "576"}]}]}}, "TArgs": {"list": {"type": ["DT_FLOAT"]}}, "padding": {"s": "U0FNRQ=="}, "fused_ops": {"list": {"s": ["Qmlhc0FkZA==", "UmVsdTY="]}}, "T": {"type": "DT_FLOAT"}, "strides": {"list": {"i": ["1", "1", "1", "1"]}}, "dilations": {"list": {"i": ["1", "1", "1", "1"]}}}}, {"name": "StatefulPartitionedCall/inference_model_1/mobilenetv2_1.00_224_1/block_12_depthwise_1/depthwise", "op": "DepthwiseConv2dNative", "input": ["StatefulPartitionedCall/inference_model_1/mobilenetv2_1.00_224_1/block_12_expand_relu_1/Relu6", "StatefulPartitionedCall/inference_model_1/mobilenetv2_1.00_224_1/block_12_depthwise_1/depthwise/ReadVariableOp"], "attr": {"explicit_paddings": {"list": {}}, "data_format": {"s": "TkhXQw=="}, "padding": {"s": "U0FNRQ=="}, "T": {"type": "DT_FLOAT"}, "strides": {"list": {"i": ["1", "1", "1", "1"]}}, "dilations": {"list": {"i": ["1", "1", "1", "1"]}}, "_input_shapes": {"list": {"shape": [{"dim": [{"size": "-2"}, {"size": "-7"}, {"size": "-8"}, {"size": "576"}]}, {"dim": [{"size": "3"}, {"size": "3"}, {"size": "576"}, {"size": "1"}]}]}}}}, {"name": "StatefulPartitionedCall/inference_model_1/mobilenetv2_1.00_224_1/block_12_depthwise_BN_1/batchnorm/mul_1", "op": "Mul", "input": ["StatefulPartitionedCall/inference_model_1/mobilenetv2_1.00_224_1/block_12_depthwise_1/depthwise", "StatefulPartitionedCall/inference_model_1/mobilenetv2_1.00_224_1/block_12_depthwise_BN_1/batchnorm/mul"], "attr": {"T": {"type": "DT_FLOAT"}}}, {"name": "StatefulPartitionedCall/inference_model_1/mobilenetv2_1.00_224_1/block_12_depthwise_BN_1/batchnorm/add_1", "op": "AddV2", "input": ["StatefulPartitionedCall/inference_model_1/mobilenetv2_1.00_224_1/block_12_depthwise_BN_1/batchnorm/mul_1", "StatefulPartitionedCall/inference_model_1/mobilenetv2_1.00_224_1/block_12_depthwise_BN_1/batchnorm/sub"], "attr": {"T": {"type": "DT_FLOAT"}}}, {"name": "StatefulPartitionedCall/inference_model_1/mobilenetv2_1.00_224_1/block_12_depthwise_relu_1/Relu6", "op": "Relu6", "input": ["StatefulPartitionedCall/inference_model_1/mobilenetv2_1.00_224_1/block_12_depthwise_BN_1/batchnorm/add_1"], "attr": {"T": {"type": "DT_FLOAT"}}}, {"name": "StatefulPartitionedCall/inference_model_1/mobilenetv2_1.00_224_1/block_12_project_BN_1/batchnorm/mul_1", "op": "Conv2D", "input": ["StatefulPartitionedCall/inference_model_1/mobilenetv2_1.00_224_1/block_12_depthwise_relu_1/Relu6", "StatefulPartitionedCall/inference_model_1/mobilenetv2_1.00_224_1/block_12_project_1/convolution/merged_input"], "device": "/device:CPU:0", "attr": {"explicit_paddings": {"list": {}}, "_input_shapes": {"list": {"shape": [{"dim": [{"size": "-2"}, {"size": "-7"}, {"size": "-8"}, {"size": "576"}]}, {"dim": [{"size": "1"}, {"size": "1"}, {"size": "576"}, {"size": "96"}]}]}}, "use_cudnn_on_gpu": {"b": true}, "padding": {"s": "U0FNRQ=="}, "data_format": {"s": "TkhXQw=="}, "strides": {"list": {"i": ["1", "1", "1", "1"]}}, "T": {"type": "DT_FLOAT"}, "dilations": {"list": {"i": ["1", "1", "1", "1"]}}}}, {"name": "StatefulPartitionedCall/inference_model_1/mobilenetv2_1.00_224_1/block_12_add_1/ArithmeticOptimizer/AddOpsRewrite_Leaf_1_Add", "op": "AddN", "input": ["StatefulPartitionedCall/inference_model_1/mobilenetv2_1.00_224_1/block_11_add_1/ArithmeticOptimizer/AddOpsRewrite_Add", "StatefulPartitionedCall/inference_model_1/mobilenetv2_1.00_224_1/block_12_project_BN_1/batchnorm/mul_1"], "attr": {"_grappler_ArithmeticOptimizer_AddOpsRewriteStage": {"b": true}, "T": {"type": "DT_FLOAT"}, "N": {"i": "2"}}}, {"name": "StatefulPartitionedCall/inference_model_1/mobilenetv2_1.00_224_1/block_12_add_1/ArithmeticOptimizer/AddOpsRewrite_Add", "op": "AddV2", "input": ["StatefulPartitionedCall/inference_model_1/mobilenetv2_1.00_224_1/block_12_project_BN_1/batchnorm/sub", "StatefulPartitionedCall/inference_model_1/mobilenetv2_1.00_224_1/block_12_add_1/ArithmeticOptimizer/AddOpsRewrite_Leaf_1_Add"], "attr": {"_grappler_ArithmeticOptimizer_AddOpsRewriteStage": {"b": true}, "T": {"type": "DT_FLOAT"}}}, {"name": "StatefulPartitionedCall/inference_model_1/mobilenetv2_1.00_224_1/block_13_expand_relu_1/Relu6", "op": "_FusedConv2D", "input": ["StatefulPartitionedCall/inference_model_1/mobilenetv2_1.00_224_1/block_12_add_1/ArithmeticOptimizer/AddOpsRewrite_Add", "StatefulPartitionedCall/inference_model_1/mobilenetv2_1.00_224_1/block_13_expand_1/convolution/merged_input", "StatefulPartitionedCall/inference_model_1/mobilenetv2_1.00_224_1/block_13_expand_BN_1/batchnorm/sub"], "device": "/device:CPU:0", "attr": {"explicit_paddings": {"list": {}}, "epsilon": {"f": 0.0}, "filter_format": {"s": "SFdJTw=="}, "leakyrelu_alpha": {"f": 0.2}, "use_cudnn_on_gpu": {"b": true}, "num_host_args": {"i": "0"}, "data_format": {"s": "TkhXQw=="}, "num_args": {"i": "1"}, "_input_shapes": {"list": {"shape": [{"dim": [{"size": "-2"}, {"size": "-7"}, {"size": "-8"}, {"size": "96"}]}, {"dim": [{"size": "1"}, {"size": "1"}, {"size": "96"}, {"size": "576"}]}]}}, "TArgs": {"list": {"type": ["DT_FLOAT"]}}, "padding": {"s": "U0FNRQ=="}, "fused_ops": {"list": {"s": ["Qmlhc0FkZA==", "UmVsdTY="]}}, "strides": {"list": {"i": ["1", "1", "1", "1"]}}, "T": {"type": "DT_FLOAT"}, "dilations": {"list": {"i": ["1", "1", "1", "1"]}}}}, {"name": "StatefulPartitionedCall/inference_model_1/mobilenetv2_1.00_224_1/block_13_pad_1/Pad", "op": "Pad", "input": ["StatefulPartitionedCall/inference_model_1/mobilenetv2_1.00_224_1/block_13_expand_relu_1/Relu6", "StatefulPartitionedCall/inference_model_1/mobilenetv2_1.00_224_1/block_13_pad_1/Const"], "attr": {"T": {"type": "DT_FLOAT"}, "Tpaddings": {"type": "DT_INT32"}}}, {"name": "StatefulPartitionedCall/inference_model_1/mobilenetv2_1.00_224_1/block_13_depthwise_1/depthwise", "op": "DepthwiseConv2dNative", "input": ["StatefulPartitionedCall/inference_model_1/mobilenetv2_1.00_224_1/block_13_pad_1/Pad", "StatefulPartitionedCall/inference_model_1/mobilenetv2_1.00_224_1/block_13_depthwise_1/depthwise/ReadVariableOp"], "attr": {"explicit_paddings": {"list": {}}, "data_format": {"s": "TkhXQw=="}, "padding": {"s": "VkFMSUQ="}, "T": {"type": "DT_FLOAT"}, "strides": {"list": {"i": ["1", "2", "2", "1"]}}, "dilations": {"list": {"i": ["1", "1", "1", "1"]}}, "_input_shapes": {"list": {"shape": [{"dim": [{"size": "-2"}, {"size": "-22"}, {"size": "-23"}, {"size": "576"}]}, {"dim": [{"size": "3"}, {"size": "3"}, {"size": "576"}, {"size": "1"}]}]}}}}, {"name": "StatefulPartitionedCall/inference_model_1/mobilenetv2_1.00_224_1/block_13_depthwise_BN_1/batchnorm/mul_1", "op": "Mul", "input": ["StatefulPartitionedCall/inference_model_1/mobilenetv2_1.00_224_1/block_13_depthwise_1/depthwise", "StatefulPartitionedCall/inference_model_1/mobilenetv2_1.00_224_1/block_13_depthwise_BN_1/batchnorm/mul"], "attr": {"T": {"type": "DT_FLOAT"}}}, {"name": "StatefulPartitionedCall/inference_model_1/mobilenetv2_1.00_224_1/block_13_depthwise_BN_1/batchnorm/add_1", "op": "AddV2", "input": ["StatefulPartitionedCall/inference_model_1/mobilenetv2_1.00_224_1/block_13_depthwise_BN_1/batchnorm/mul_1", "StatefulPartitionedCall/inference_model_1/mobilenetv2_1.00_224_1/block_13_depthwise_BN_1/batchnorm/sub"], "attr": {"T": {"type": "DT_FLOAT"}}}, {"name": "StatefulPartitionedCall/inference_model_1/mobilenetv2_1.00_224_1/block_13_depthwise_relu_1/Relu6", "op": "Relu6", "input": ["StatefulPartitionedCall/inference_model_1/mobilenetv2_1.00_224_1/block_13_depthwise_BN_1/batchnorm/add_1"], "attr": {"T": {"type": "DT_FLOAT"}}}, {"name": "StatefulPartitionedCall/inference_model_1/mobilenetv2_1.00_224_1/block_13_project_BN_1/batchnorm/add_1", "op": "_FusedConv2D", "input": ["StatefulPartitionedCall/inference_model_1/mobilenetv2_1.00_224_1/block_13_depthwise_relu_1/Relu6", "StatefulPartitionedCall/inference_model_1/mobilenetv2_1.00_224_1/block_13_project_1/convolution/merged_input", "StatefulPartitionedCall/inference_model_1/mobilenetv2_1.00_224_1/block_13_project_BN_1/batchnorm/sub"], "device": "/device:CPU:0", "attr": {"explicit_paddings": {"list": {}}, "epsilon": {"f": 0.0}, "filter_format": {"s": "SFdJTw=="}, "leakyrelu_alpha": {"f": 0.2}, "use_cudnn_on_gpu": {"b": true}, "num_host_args": {"i": "0"}, "data_format": {"s": "TkhXQw=="}, "num_args": {"i": "1"}, "_input_shapes": {"list": {"shape": [{"dim": [{"size": "-2"}, {"size": "-9"}, {"size": "-10"}, {"size": "576"}]}, {"dim": [{"size": "1"}, {"size": "1"}, {"size": "576"}, {"size": "160"}]}]}}, "TArgs": {"list": {"type": ["DT_FLOAT"]}}, "padding": {"s": "U0FNRQ=="}, "fused_ops": {"list": {"s": ["Qmlhc0FkZA=="]}}, "T": {"type": "DT_FLOAT"}, "strides": {"list": {"i": ["1", "1", "1", "1"]}}, "dilations": {"list": {"i": ["1", "1", "1", "1"]}}}}, {"name": "StatefulPartitionedCall/inference_model_1/mobilenetv2_1.00_224_1/block_14_expand_relu_1/Relu6", "op": "_FusedConv2D", "input": ["StatefulPartitionedCall/inference_model_1/mobilenetv2_1.00_224_1/block_13_project_BN_1/batchnorm/add_1", "StatefulPartitionedCall/inference_model_1/mobilenetv2_1.00_224_1/block_14_expand_1/convolution/merged_input", "StatefulPartitionedCall/inference_model_1/mobilenetv2_1.00_224_1/block_14_expand_BN_1/batchnorm/sub"], "device": "/device:CPU:0", "attr": {"explicit_paddings": {"list": {}}, "epsilon": {"f": 0.0}, "filter_format": {"s": "SFdJTw=="}, "leakyrelu_alpha": {"f": 0.2}, "use_cudnn_on_gpu": {"b": true}, "num_host_args": {"i": "0"}, "data_format": {"s": "TkhXQw=="}, "num_args": {"i": "1"}, "_input_shapes": {"list": {"shape": [{"dim": [{"size": "-2"}, {"size": "-9"}, {"size": "-10"}, {"size": "160"}]}, {"dim": [{"size": "1"}, {"size": "1"}, {"size": "160"}, {"size": "960"}]}]}}, "TArgs": {"list": {"type": ["DT_FLOAT"]}}, "padding": {"s": "U0FNRQ=="}, "fused_ops": {"list": {"s": ["Qmlhc0FkZA==", "UmVsdTY="]}}, "strides": {"list": {"i": ["1", "1", "1", "1"]}}, "T": {"type": "DT_FLOAT"}, "dilations": {"list": {"i": ["1", "1", "1", "1"]}}}}, {"name": "StatefulPartitionedCall/inference_model_1/mobilenetv2_1.00_224_1/block_14_depthwise_1/depthwise", "op": "DepthwiseConv2dNative", "input": ["StatefulPartitionedCall/inference_model_1/mobilenetv2_1.00_224_1/block_14_expand_relu_1/Relu6", "StatefulPartitionedCall/inference_model_1/mobilenetv2_1.00_224_1/block_14_depthwise_1/depthwise/ReadVariableOp"], "attr": {"explicit_paddings": {"list": {}}, "data_format": {"s": "TkhXQw=="}, "padding": {"s": "U0FNRQ=="}, "strides": {"list": {"i": ["1", "1", "1", "1"]}}, "T": {"type": "DT_FLOAT"}, "dilations": {"list": {"i": ["1", "1", "1", "1"]}}, "_input_shapes": {"list": {"shape": [{"dim": [{"size": "-2"}, {"size": "-9"}, {"size": "-10"}, {"size": "960"}]}, {"dim": [{"size": "3"}, {"size": "3"}, {"size": "960"}, {"size": "1"}]}]}}}}, {"name": "StatefulPartitionedCall/inference_model_1/mobilenetv2_1.00_224_1/block_14_depthwise_BN_1/batchnorm/mul_1", "op": "Mul", "input": ["StatefulPartitionedCall/inference_model_1/mobilenetv2_1.00_224_1/block_14_depthwise_1/depthwise", "StatefulPartitionedCall/inference_model_1/mobilenetv2_1.00_224_1/block_14_depthwise_BN_1/batchnorm/mul"], "attr": {"T": {"type": "DT_FLOAT"}}}, {"name": "StatefulPartitionedCall/inference_model_1/mobilenetv2_1.00_224_1/block_14_depthwise_BN_1/batchnorm/add_1", "op": "AddV2", "input": ["StatefulPartitionedCall/inference_model_1/mobilenetv2_1.00_224_1/block_14_depthwise_BN_1/batchnorm/mul_1", "StatefulPartitionedCall/inference_model_1/mobilenetv2_1.00_224_1/block_14_depthwise_BN_1/batchnorm/sub"], "attr": {"T": {"type": "DT_FLOAT"}}}, {"name": "StatefulPartitionedCall/inference_model_1/mobilenetv2_1.00_224_1/block_14_depthwise_relu_1/Relu6", "op": "Relu6", "input": ["StatefulPartitionedCall/inference_model_1/mobilenetv2_1.00_224_1/block_14_depthwise_BN_1/batchnorm/add_1"], "attr": {"T": {"type": "DT_FLOAT"}}}, {"name": "StatefulPartitionedCall/inference_model_1/mobilenetv2_1.00_224_1/block_14_project_BN_1/batchnorm/mul_1", "op": "Conv2D", "input": ["StatefulPartitionedCall/inference_model_1/mobilenetv2_1.00_224_1/block_14_depthwise_relu_1/Relu6", "StatefulPartitionedCall/inference_model_1/mobilenetv2_1.00_224_1/block_14_project_1/convolution/merged_input"], "device": "/device:CPU:0", "attr": {"explicit_paddings": {"list": {}}, "_input_shapes": {"list": {"shape": [{"dim": [{"size": "-2"}, {"size": "-9"}, {"size": "-10"}, {"size": "960"}]}, {"dim": [{"size": "1"}, {"size": "1"}, {"size": "960"}, {"size": "160"}]}]}}, "use_cudnn_on_gpu": {"b": true}, "padding": {"s": "U0FNRQ=="}, "data_format": {"s": "TkhXQw=="}, "T": {"type": "DT_FLOAT"}, "strides": {"list": {"i": ["1", "1", "1", "1"]}}, "dilations": {"list": {"i": ["1", "1", "1", "1"]}}}}, {"name": "StatefulPartitionedCall/inference_model_1/mobilenetv2_1.00_224_1/block_14_add_1/ArithmeticOptimizer/AddOpsRewrite_Leaf_1_Add", "op": "AddN", "input": ["StatefulPartitionedCall/inference_model_1/mobilenetv2_1.00_224_1/block_13_project_BN_1/batchnorm/add_1", "StatefulPartitionedCall/inference_model_1/mobilenetv2_1.00_224_1/block_14_project_BN_1/batchnorm/mul_1"], "attr": {"_grappler_ArithmeticOptimizer_AddOpsRewriteStage": {"b": true}, "T": {"type": "DT_FLOAT"}, "N": {"i": "2"}}}, {"name": "StatefulPartitionedCall/inference_model_1/mobilenetv2_1.00_224_1/block_14_add_1/ArithmeticOptimizer/AddOpsRewrite_Add", "op": "AddV2", "input": ["StatefulPartitionedCall/inference_model_1/mobilenetv2_1.00_224_1/block_14_project_BN_1/batchnorm/sub", "StatefulPartitionedCall/inference_model_1/mobilenetv2_1.00_224_1/block_14_add_1/ArithmeticOptimizer/AddOpsRewrite_Leaf_1_Add"], "attr": {"_grappler_ArithmeticOptimizer_AddOpsRewriteStage": {"b": true}, "T": {"type": "DT_FLOAT"}}}, {"name": "StatefulPartitionedCall/inference_model_1/mobilenetv2_1.00_224_1/block_15_expand_relu_1/Relu6", "op": "_FusedConv2D", "input": ["StatefulPartitionedCall/inference_model_1/mobilenetv2_1.00_224_1/block_14_add_1/ArithmeticOptimizer/AddOpsRewrite_Add", "StatefulPartitionedCall/inference_model_1/mobilenetv2_1.00_224_1/block_15_expand_1/convolution/merged_input", "StatefulPartitionedCall/inference_model_1/mobilenetv2_1.00_224_1/block_15_expand_BN_1/batchnorm/sub"], "device": "/device:CPU:0", "attr": {"explicit_paddings": {"list": {}}, "epsilon": {"f": 0.0}, "filter_format": {"s": "SFdJTw=="}, "leakyrelu_alpha": {"f": 0.2}, "use_cudnn_on_gpu": {"b": true}, "num_host_args": {"i": "0"}, "data_format": {"s": "TkhXQw=="}, "num_args": {"i": "1"}, "_input_shapes": {"list": {"shape": [{"dim": [{"size": "-2"}, {"size": "-9"}, {"size": "-10"}, {"size": "160"}]}, {"dim": [{"size": "1"}, {"size": "1"}, {"size": "160"}, {"size": "960"}]}]}}, "TArgs": {"list": {"type": ["DT_FLOAT"]}}, "padding": {"s": "U0FNRQ=="}, "fused_ops": {"list": {"s": ["Qmlhc0FkZA==", "UmVsdTY="]}}, "strides": {"list": {"i": ["1", "1", "1", "1"]}}, "T": {"type": "DT_FLOAT"}, "dilations": {"list": {"i": ["1", "1", "1", "1"]}}}}, {"name": "StatefulPartitionedCall/inference_model_1/mobilenetv2_1.00_224_1/block_15_depthwise_1/depthwise", "op": "DepthwiseConv2dNative", "input": ["StatefulPartitionedCall/inference_model_1/mobilenetv2_1.00_224_1/block_15_expand_relu_1/Relu6", "StatefulPartitionedCall/inference_model_1/mobilenetv2_1.00_224_1/block_15_depthwise_1/depthwise/ReadVariableOp"], "attr": {"explicit_paddings": {"list": {}}, "padding": {"s": "U0FNRQ=="}, "data_format": {"s": "TkhXQw=="}, "T": {"type": "DT_FLOAT"}, "strides": {"list": {"i": ["1", "1", "1", "1"]}}, "dilations": {"list": {"i": ["1", "1", "1", "1"]}}, "_input_shapes": {"list": {"shape": [{"dim": [{"size": "-2"}, {"size": "-9"}, {"size": "-10"}, {"size": "960"}]}, {"dim": [{"size": "3"}, {"size": "3"}, {"size": "960"}, {"size": "1"}]}]}}}}, {"name": "StatefulPartitionedCall/inference_model_1/mobilenetv2_1.00_224_1/block_15_depthwise_BN_1/batchnorm/mul_1", "op": "Mul", "input": ["StatefulPartitionedCall/inference_model_1/mobilenetv2_1.00_224_1/block_15_depthwise_1/depthwise", "StatefulPartitionedCall/inference_model_1/mobilenetv2_1.00_224_1/block_15_depthwise_BN_1/batchnorm/mul"], "attr": {"T": {"type": "DT_FLOAT"}}}, {"name": "StatefulPartitionedCall/inference_model_1/mobilenetv2_1.00_224_1/block_15_depthwise_BN_1/batchnorm/add_1", "op": "AddV2", "input": ["StatefulPartitionedCall/inference_model_1/mobilenetv2_1.00_224_1/block_15_depthwise_BN_1/batchnorm/mul_1", "StatefulPartitionedCall/inference_model_1/mobilenetv2_1.00_224_1/block_15_depthwise_BN_1/batchnorm/sub"], "attr": {"T": {"type": "DT_FLOAT"}}}, {"name": "StatefulPartitionedCall/inference_model_1/mobilenetv2_1.00_224_1/block_15_depthwise_relu_1/Relu6", "op": "Relu6", "input": ["StatefulPartitionedCall/inference_model_1/mobilenetv2_1.00_224_1/block_15_depthwise_BN_1/batchnorm/add_1"], "attr": {"T": {"type": "DT_FLOAT"}}}, {"name": "StatefulPartitionedCall/inference_model_1/mobilenetv2_1.00_224_1/block_15_project_BN_1/batchnorm/mul_1", "op": "Conv2D", "input": ["StatefulPartitionedCall/inference_model_1/mobilenetv2_1.00_224_1/block_15_depthwise_relu_1/Relu6", "StatefulPartitionedCall/inference_model_1/mobilenetv2_1.00_224_1/block_15_project_1/convolution/merged_input"], "device": "/device:CPU:0", "attr": {"explicit_paddings": {"list": {}}, "_input_shapes": {"list": {"shape": [{"dim": [{"size": "-2"}, {"size": "-9"}, {"size": "-10"}, {"size": "960"}]}, {"dim": [{"size": "1"}, {"size": "1"}, {"size": "960"}, {"size": "160"}]}]}}, "use_cudnn_on_gpu": {"b": true}, "data_format": {"s": "TkhXQw=="}, "padding": {"s": "U0FNRQ=="}, "T": {"type": "DT_FLOAT"}, "strides": {"list": {"i": ["1", "1", "1", "1"]}}, "dilations": {"list": {"i": ["1", "1", "1", "1"]}}}}, {"name": "StatefulPartitionedCall/inference_model_1/mobilenetv2_1.00_224_1/block_15_add_1/ArithmeticOptimizer/AddOpsRewrite_Leaf_1_Add", "op": "AddN", "input": ["StatefulPartitionedCall/inference_model_1/mobilenetv2_1.00_224_1/block_14_add_1/ArithmeticOptimizer/AddOpsRewrite_Add", "StatefulPartitionedCall/inference_model_1/mobilenetv2_1.00_224_1/block_15_project_BN_1/batchnorm/mul_1"], "attr": {"_grappler_ArithmeticOptimizer_AddOpsRewriteStage": {"b": true}, "T": {"type": "DT_FLOAT"}, "N": {"i": "2"}}}, {"name": "StatefulPartitionedCall/inference_model_1/mobilenetv2_1.00_224_1/block_15_add_1/ArithmeticOptimizer/AddOpsRewrite_Add", "op": "AddV2", "input": ["StatefulPartitionedCall/inference_model_1/mobilenetv2_1.00_224_1/block_15_project_BN_1/batchnorm/sub", "StatefulPartitionedCall/inference_model_1/mobilenetv2_1.00_224_1/block_15_add_1/ArithmeticOptimizer/AddOpsRewrite_Leaf_1_Add"], "attr": {"_grappler_ArithmeticOptimizer_AddOpsRewriteStage": {"b": true}, "T": {"type": "DT_FLOAT"}}}, {"name": "StatefulPartitionedCall/inference_model_1/mobilenetv2_1.00_224_1/block_16_expand_relu_1/Relu6", "op": "_FusedConv2D", "input": ["StatefulPartitionedCall/inference_model_1/mobilenetv2_1.00_224_1/block_15_add_1/ArithmeticOptimizer/AddOpsRewrite_Add", "StatefulPartitionedCall/inference_model_1/mobilenetv2_1.00_224_1/block_16_expand_1/convolution/merged_input", "StatefulPartitionedCall/inference_model_1/mobilenetv2_1.00_224_1/block_16_expand_BN_1/batchnorm/sub"], "device": "/device:CPU:0", "attr": {"explicit_paddings": {"list": {}}, "epsilon": {"f": 0.0}, "filter_format": {"s": "SFdJTw=="}, "leakyrelu_alpha": {"f": 0.2}, "_input_shapes": {"list": {"shape": [{"dim": [{"size": "-2"}, {"size": "-9"}, {"size": "-10"}, {"size": "160"}]}, {"dim": [{"size": "1"}, {"size": "1"}, {"size": "160"}, {"size": "960"}]}]}}, "num_host_args": {"i": "0"}, "data_format": {"s": "TkhXQw=="}, "num_args": {"i": "1"}, "use_cudnn_on_gpu": {"b": true}, "TArgs": {"list": {"type": ["DT_FLOAT"]}}, "padding": {"s": "U0FNRQ=="}, "fused_ops": {"list": {"s": ["Qmlhc0FkZA==", "UmVsdTY="]}}, "strides": {"list": {"i": ["1", "1", "1", "1"]}}, "T": {"type": "DT_FLOAT"}, "dilations": {"list": {"i": ["1", "1", "1", "1"]}}}}, {"name": "StatefulPartitionedCall/inference_model_1/mobilenetv2_1.00_224_1/block_16_depthwise_1/depthwise", "op": "DepthwiseConv2dNative", "input": ["StatefulPartitionedCall/inference_model_1/mobilenetv2_1.00_224_1/block_16_expand_relu_1/Relu6", "StatefulPartitionedCall/inference_model_1/mobilenetv2_1.00_224_1/block_16_depthwise_1/depthwise/ReadVariableOp"], "attr": {"explicit_paddings": {"list": {}}, "data_format": {"s": "TkhXQw=="}, "padding": {"s": "U0FNRQ=="}, "T": {"type": "DT_FLOAT"}, "strides": {"list": {"i": ["1", "1", "1", "1"]}}, "dilations": {"list": {"i": ["1", "1", "1", "1"]}}, "_input_shapes": {"list": {"shape": [{"dim": [{"size": "-2"}, {"size": "-9"}, {"size": "-10"}, {"size": "960"}]}, {"dim": [{"size": "3"}, {"size": "3"}, {"size": "960"}, {"size": "1"}]}]}}}}, {"name": "StatefulPartitionedCall/inference_model_1/mobilenetv2_1.00_224_1/block_16_depthwise_BN_1/batchnorm/mul_1", "op": "Mul", "input": ["StatefulPartitionedCall/inference_model_1/mobilenetv2_1.00_224_1/block_16_depthwise_1/depthwise", "StatefulPartitionedCall/inference_model_1/mobilenetv2_1.00_224_1/block_16_depthwise_BN_1/batchnorm/mul"], "attr": {"T": {"type": "DT_FLOAT"}}}, {"name": "StatefulPartitionedCall/inference_model_1/mobilenetv2_1.00_224_1/block_16_depthwise_BN_1/batchnorm/add_1", "op": "AddV2", "input": ["StatefulPartitionedCall/inference_model_1/mobilenetv2_1.00_224_1/block_16_depthwise_BN_1/batchnorm/mul_1", "StatefulPartitionedCall/inference_model_1/mobilenetv2_1.00_224_1/block_16_depthwise_BN_1/batchnorm/sub"], "attr": {"T": {"type": "DT_FLOAT"}}}, {"name": "StatefulPartitionedCall/inference_model_1/mobilenetv2_1.00_224_1/block_16_depthwise_relu_1/Relu6", "op": "Relu6", "input": ["StatefulPartitionedCall/inference_model_1/mobilenetv2_1.00_224_1/block_16_depthwise_BN_1/batchnorm/add_1"], "attr": {"T": {"type": "DT_FLOAT"}}}, {"name": "StatefulPartitionedCall/inference_model_1/mobilenetv2_1.00_224_1/block_16_project_BN_1/batchnorm/add_1", "op": "_FusedConv2D", "input": ["StatefulPartitionedCall/inference_model_1/mobilenetv2_1.00_224_1/block_16_depthwise_relu_1/Relu6", "StatefulPartitionedCall/inference_model_1/mobilenetv2_1.00_224_1/block_16_project_1/convolution/merged_input", "StatefulPartitionedCall/inference_model_1/mobilenetv2_1.00_224_1/block_16_project_BN_1/batchnorm/sub"], "device": "/device:CPU:0", "attr": {"explicit_paddings": {"list": {}}, "epsilon": {"f": 0.0}, "filter_format": {"s": "SFdJTw=="}, "leakyrelu_alpha": {"f": 0.2}, "_input_shapes": {"list": {"shape": [{"dim": [{"size": "-2"}, {"size": "-9"}, {"size": "-10"}, {"size": "960"}]}, {"dim": [{"size": "1"}, {"size": "1"}, {"size": "960"}, {"size": "320"}]}]}}, "num_host_args": {"i": "0"}, "data_format": {"s": "TkhXQw=="}, "num_args": {"i": "1"}, "use_cudnn_on_gpu": {"b": true}, "TArgs": {"list": {"type": ["DT_FLOAT"]}}, "padding": {"s": "U0FNRQ=="}, "fused_ops": {"list": {"s": ["Qmlhc0FkZA=="]}}, "T": {"type": "DT_FLOAT"}, "strides": {"list": {"i": ["1", "1", "1", "1"]}}, "dilations": {"list": {"i": ["1", "1", "1", "1"]}}}}, {"name": "StatefulPartitionedCall/inference_model_1/mobilenetv2_1.00_224_1/out_relu_1/Relu6", "op": "_FusedConv2D", "input": ["StatefulPartitionedCall/inference_model_1/mobilenetv2_1.00_224_1/block_16_project_BN_1/batchnorm/add_1", "StatefulPartitionedCall/inference_model_1/mobilenetv2_1.00_224_1/Conv_1_1/convolution/merged_input", "StatefulPartitionedCall/inference_model_1/mobilenetv2_1.00_224_1/Conv_1_bn_1/batchnorm/sub"], "device": "/device:CPU:0", "attr": {"explicit_paddings": {"list": {}}, "epsilon": {"f": 0.0}, "filter_format": {"s": "SFdJTw=="}, "leakyrelu_alpha": {"f": 0.2}, "use_cudnn_on_gpu": {"b": true}, "num_host_args": {"i": "0"}, "data_format": {"s": "TkhXQw=="}, "num_args": {"i": "1"}, "_input_shapes": {"list": {"shape": [{"dim": [{"size": "-2"}, {"size": "-9"}, {"size": "-10"}, {"size": "320"}]}, {"dim": [{"size": "1"}, {"size": "1"}, {"size": "320"}, {"size": "1280"}]}]}}, "TArgs": {"list": {"type": ["DT_FLOAT"]}}, "padding": {"s": "VkFMSUQ="}, "fused_ops": {"list": {"s": ["Qmlhc0FkZA==", "UmVsdTY="]}}, "T": {"type": "DT_FLOAT"}, "strides": {"list": {"i": ["1", "1", "1", "1"]}}, "dilations": {"list": {"i": ["1", "1", "1", "1"]}}}}, {"name": "StatefulPartitionedCall/inference_model_1/global_average_pooling2d_1/Mean", "op": "Mean", "input": ["StatefulPartitionedCall/inference_model_1/mobilenetv2_1.00_224_1/out_relu_1/Relu6", "StatefulPartitionedCall/inference_model_1/global_average_pooling2d_1/Mean/reduction_indices"], "attr": {"Tidx": {"type": "DT_INT32"}, "T": {"type": "DT_FLOAT"}, "keep_dims": {"b": false}}}, {"name": "StatefulPartitionedCall/inference_model_1/dense_1/BiasAdd", "op": "_FusedMatMul", "input": ["StatefulPartitionedCall/inference_model_1/global_average_pooling2d_1/Mean", "StatefulPartitionedCall/inference_model_1/dense_1/Cast/ReadVariableOp", "StatefulPartitionedCall/inference_model_1/dense_1/BiasAdd/ReadVariableOp"], "device": "/device:CPU:0", "attr": {"transpose_a": {"b": false}, "epsilon": {"f": 0.0}, "leakyrelu_alpha": {"f": 0.2}, "_input_shapes": {"list": {"shape": [{"dim": [{"size": "-2"}, {"size": "1280"}]}, {"dim": [{"size": "1280"}, {"size": "151"}]}]}}, "num_args": {"i": "1"}, "T": {"type": "DT_FLOAT"}, "fused_ops": {"list": {"s": ["Qmlhc0FkZA=="]}}, "transpose_b": {"b": false}}}, {"name": "StatefulPartitionedCall/inference_model_1/dense_1/Softmax", "op": "Softmax", "input": ["StatefulPartitionedCall/inference_model_1/dense_1/BiasAdd"], "attr": {"T": {"type": "DT_FLOAT"}}}, {"name": "Identity", "op": "Identity", "input": ["StatefulPartitionedCall/inference_model_1/dense_1/Softmax"], "attr": {"T": {"type": "DT_FLOAT"}}}], "library": {}, "versions": {"producer": 2474}}, "weightsManifest": [{"paths": ["group1-shard1of3.bin", "group1-shard2of3.bin", "group1-shard3of3.bin"], "weights": [{"name": "StatefulPartitionedCall/inference_model_1/mobilenetv2_1.00_224_1/block_15_project_BN_1/batchnorm/sub", "shape": [160], "dtype": "float32"}, {"name": "StatefulPartitionedCall/inference_model_1/mobilenetv2_1.00_224_1/block_14_project_BN_1/batchnorm/sub", "shape": [160], "dtype": "float32"}, {"name": "StatefulPartitionedCall/inference_model_1/mobilenetv2_1.00_224_1/block_12_project_BN_1/batchnorm/sub", "shape": [96], "dtype": "float32"}, {"name": "StatefulPartitionedCall/inference_model_1/mobilenetv2_1.00_224_1/block_11_project_BN_1/batchnorm/sub", "shape": [96], "dtype": "float32"}, {"name": "StatefulPartitionedCall/inference_model_1/mobilenetv2_1.00_224_1/block_9_project_BN_1/batchnorm/sub", "shape": [64], "dtype": "float32"}, {"name": "StatefulPartitionedCall/inference_model_1/mobilenetv2_1.00_224_1/block_8_project_BN_1/batchnorm/sub", "shape": [64], "dtype": "float32"}, {"name": "StatefulPartitionedCall/inference_model_1/mobilenetv2_1.00_224_1/block_7_project_BN_1/batchnorm/sub", "shape": [64], "dtype": "float32"}, {"name": "StatefulPartitionedCall/inference_model_1/mobilenetv2_1.00_224_1/block_5_project_BN_1/batchnorm/sub", "shape": [32], "dtype": "float32"}, {"name": "StatefulPartitionedCall/inference_model_1/mobilenetv2_1.00_224_1/block_4_project_BN_1/batchnorm/sub", "shape": [32], "dtype": "float32"}, {"name": "StatefulPartitionedCall/inference_model_1/mobilenetv2_1.00_224_1/block_2_project_BN_1/batchnorm/sub", "shape": [24], "dtype": "float32"}, {"name": "StatefulPartitionedCall/inference_model_1/rescaling_1/Cast/x", "shape": [], "dtype": "float32"}, {"name": "StatefulPartitionedCall/inference_model_1/rescaling_1/Cast_1/x", "shape": [], "dtype": "float32"}, {"name": "StatefulPartitionedCall/inference_model_1/mobilenetv2_1.00_224_1/Conv1_1/convolution/merged_input", "shape": [3, 3, 3, 32], "dtype": "float32"}, {"name": "StatefulPartitionedCall/inference_model_1/mobilenetv2_1.00_224_1/bn_Conv1_1/batchnorm/sub", "shape": [32], "dtype": "float32"}, {"name": "StatefulPartitionedCall/inference_model_1/mobilenetv2_1.00_224_1/expanded_conv_depthwise_1/depthwise/ReadVariableOp", "shape": [3, 3, 32, 1], "dtype": "float32"}, {"name": "StatefulPartitionedCall/inference_model_1/mobilenetv2_1.00_224_1/expanded_conv_depthwise_BN_1/batchnorm/mul", "shape": [32], "dtype": "float32"}, {"name": "StatefulPartitionedCall/inference_model_1/mobilenetv2_1.00_224_1/expanded_conv_depthwise_BN_1/batchnorm/sub", "shape": [32], "dtype": "float32"}, {"name": "StatefulPartitionedCall/inference_model_1/mobilenetv2_1.00_224_1/expanded_conv_project_1/convolution/merged_input", "shape": [1, 1, 32, 16], "dtype": "float32"}, {"name": "StatefulPartitionedCall/inference_model_1/mobilenetv2_1.00_224_1/expanded_conv_project_BN_1/batchnorm/sub", "shape": [16], "dtype": "float32"}, {"name": "StatefulPartitionedCall/inference_model_1/mobilenetv2_1.00_224_1/block_1_expand_1/convolution/merged_input", "shape": [1, 1, 16, 96], "dtype": "float32"}, {"name": "StatefulPartitionedCall/inference_model_1/mobilenetv2_1.00_224_1/block_1_expand_BN_1/batchnorm/sub", "shape": [96], "dtype": "float32"}, {"name": "StatefulPartitionedCall/inference_model_1/mobilenetv2_1.00_224_1/block_1_pad_1/Const", "shape": [4, 2], "dtype": "int32"}, {"name": "StatefulPartitionedCall/inference_model_1/mobilenetv2_1.00_224_1/block_1_depthwise_1/depthwise/ReadVariableOp", "shape": [3, 3, 96, 1], "dtype": "float32"}, {"name": "StatefulPartitionedCall/inference_model_1/mobilenetv2_1.00_224_1/block_1_depthwise_BN_1/batchnorm/mul", "shape": [96], "dtype": "float32"}, {"name": "StatefulPartitionedCall/inference_model_1/mobilenetv2_1.00_224_1/block_1_depthwise_BN_1/batchnorm/sub", "shape": [96], "dtype": "float32"}, {"name": "StatefulPartitionedCall/inference_model_1/mobilenetv2_1.00_224_1/block_1_project_1/convolution/merged_input", "shape": [1, 1, 96, 24], "dtype": "float32"}, {"name": "StatefulPartitionedCall/inference_model_1/mobilenetv2_1.00_224_1/block_1_project_BN_1/batchnorm/sub", "shape": [24], "dtype": "float32"}, {"name": "StatefulPartitionedCall/inference_model_1/mobilenetv2_1.00_224_1/block_2_expand_1/convolution/merged_input", "shape": [1, 1, 24, 144], "dtype": "float32"}, {"name": "StatefulPartitionedCall/inference_model_1/mobilenetv2_1.00_224_1/block_2_expand_BN_1/batchnorm/sub", "shape": [144], "dtype": "float32"}, {"name": "StatefulPartitionedCall/inference_model_1/mobilenetv2_1.00_224_1/block_2_depthwise_1/depthwise/ReadVariableOp", "shape": [3, 3, 144, 1], "dtype": "float32"}, {"name": "StatefulPartitionedCall/inference_model_1/mobilenetv2_1.00_224_1/block_2_depthwise_BN_1/batchnorm/mul", "shape": [144], "dtype": "float32"}, {"name": "StatefulPartitionedCall/inference_model_1/mobilenetv2_1.00_224_1/block_2_depthwise_BN_1/batchnorm/sub", "shape": [144], "dtype": "float32"}, {"name": "StatefulPartitionedCall/inference_model_1/mobilenetv2_1.00_224_1/block_2_project_1/convolution/merged_input", "shape": [1, 1, 144, 24], "dtype": "float32"}, {"name": "StatefulPartitionedCall/inference_model_1/mobilenetv2_1.00_224_1/block_3_expand_1/convolution/merged_input", "shape": [1, 1, 24, 144], "dtype": "float32"}, {"name": "StatefulPartitionedCall/inference_model_1/mobilenetv2_1.00_224_1/block_3_expand_BN_1/batchnorm/sub", "shape": [144], "dtype": "float32"}, {"name": "StatefulPartitionedCall/inference_model_1/mobilenetv2_1.00_224_1/block_3_pad_1/Const", "shape": [4, 2], "dtype": "int32"}, {"name": "StatefulPartitionedCall/inference_model_1/mobilenetv2_1.00_224_1/block_3_depthwise_1/depthwise/ReadVariableOp", "shape": [3, 3, 144, 1], "dtype": "float32"}, {"name": "StatefulPartitionedCall/inference_model_1/mobilenetv2_1.00_224_1/block_3_depthwise_BN_1/batchnorm/mul", "shape": [144], "dtype": "float32"}, {"name": "StatefulPartitionedCall/inference_model_1/mobilenetv2_1.00_224_1/block_3_depthwise_BN_1/batchnorm/sub", "shape": [144], "dtype": "float32"}, {"name": "StatefulPartitionedCall/inference_model_1/mobilenetv2_1.00_224_1/block_3_project_1/convolution/merged_input", "shape": [1, 1, 144, 32], "dtype": "float32"}, {"name": "StatefulPartitionedCall/inference_model_1/mobilenetv2_1.00_224_1/block_3_project_BN_1/batchnorm/sub", "shape": [32], "dtype": "float32"}, {"name": "StatefulPartitionedCall/inference_model_1/mobilenetv2_1.00_224_1/block_4_expand_1/convolution/merged_input", "shape": [1, 1, 32, 192], "dtype": "float32"}, {"name": "StatefulPartitionedCall/inference_model_1/mobilenetv2_1.00_224_1/block_4_expand_BN_1/batchnorm/sub", "shape": [192], "dtype": "float32"}, {"name": "StatefulPartitionedCall/inference_model_1/mobilenetv2_1.00_224_1/block_4_depthwise_1/depthwise/ReadVariableOp", "shape": [3, 3, 192, 1], "dtype": "float32"}, {"name": "StatefulPartitionedCall/inference_model_1/mobilenetv2_1.00_224_1/block_4_depthwise_BN_1/batchnorm/mul", "shape": [192], "dtype": "float32"}, {"name": "StatefulPartitionedCall/inference_model_1/mobilenetv2_1.00_224_1/block_4_depthwise_BN_1/batchnorm/sub", "shape": [192], "dtype": "float32"}, {"name": "StatefulPartitionedCall/inference_model_1/mobilenetv2_1.00_224_1/block_4_project_1/convolution/merged_input", "shape": [1, 1, 192, 32], "dtype": "float32"}, {"name": "StatefulPartitionedCall/inference_model_1/mobilenetv2_1.00_224_1/block_5_expand_1/convolution/merged_input", "shape": [1, 1, 32, 192], "dtype": "float32"}, {"name": "StatefulPartitionedCall/inference_model_1/mobilenetv2_1.00_224_1/block_5_expand_BN_1/batchnorm/sub", "shape": [192], "dtype": "float32"}, {"name": "StatefulPartitionedCall/inference_model_1/mobilenetv2_1.00_224_1/block_5_depthwise_1/depthwise/ReadVariableOp", "shape": [3, 3, 192, 1], "dtype": "float32"}, {"name": "StatefulPartitionedCall/inference_model_1/mobilenetv2_1.00_224_1/block_5_depthwise_BN_1/batchnorm/mul", "shape": [192], "dtype": "float32"}, {"name": "StatefulPartitionedCall/inference_model_1/mobilenetv2_1.00_224_1/block_5_depthwise_BN_1/batchnorm/sub", "shape": [192], "dtype": "float32"}, {"name": "StatefulPartitionedCall/inference_model_1/mobilenetv2_1.00_224_1/block_5_project_1/convolution/merged_input", "shape": [1, 1, 192, 32], "dtype": "float32"}, {"name": "StatefulPartitionedCall/inference_model_1/mobilenetv2_1.00_224_1/block_6_expand_1/convolution/merged_input", "shape": [1, 1, 32, 192], "dtype": "float32"}, {"name": "StatefulPartitionedCall/inference_model_1/mobilenetv2_1.00_224_1/block_6_expand_BN_1/batchnorm/sub", "shape": [192], "dtype": "float32"}, {"name": "StatefulPartitionedCall/inference_model_1/mobilenetv2_1.00_224_1/block_6_pad_1/Const", "shape": [4, 2], "dtype": "int32"}, {"name": "StatefulPartitionedCall/inference_model_1/mobilenetv2_1.00_224_1/block_6_depthwise_1/depthwise/ReadVariableOp", "shape": [3, 3, 192, 1], "dtype": "float32"}, {"name": "StatefulPartitionedCall/inference_model_1/mobilenetv2_1.00_224_1/block_6_depthwise_BN_1/batchnorm/mul", "shape": [192], "dtype": "float32"}, {"name": "StatefulPartitionedCall/inference_model_1/mobilenetv2_1.00_224_1/block_6_depthwise_BN_1/batchnorm/sub", "shape": [192], "dtype": "float32"}, {"name": "StatefulPartitionedCall/inference_model_1/mobilenetv2_1.00_224_1/block_6_project_1/convolution/merged_input", "shape": [1, 1, 192, 64], "dtype": "float32"}, {"name": "StatefulPartitionedCall/inference_model_1/mobilenetv2_1.00_224_1/block_6_project_BN_1/batchnorm/sub", "shape": [64], "dtype": "float32"}, {"name": "StatefulPartitionedCall/inference_model_1/mobilenetv2_1.00_224_1/block_7_expand_1/convolution/merged_input", "shape": [1, 1, 64, 384], "dtype": "float32"}, {"name": "StatefulPartitionedCall/inference_model_1/mobilenetv2_1.00_224_1/block_7_expand_BN_1/batchnorm/sub", "shape": [384], "dtype": "float32"}, {"name": "StatefulPartitionedCall/inference_model_1/mobilenetv2_1.00_224_1/block_7_depthwise_1/depthwise/ReadVariableOp", "shape": [3, 3, 384, 1], "dtype": "float32"}, {"name": "StatefulPartitionedCall/inference_model_1/mobilenetv2_1.00_224_1/block_7_depthwise_BN_1/batchnorm/mul", "shape": [384], "dtype": "float32"}, {"name": "StatefulPartitionedCall/inference_model_1/mobilenetv2_1.00_224_1/block_7_depthwise_BN_1/batchnorm/sub", "shape": [384], "dtype": "float32"}, {"name": "StatefulPartitionedCall/inference_model_1/mobilenetv2_1.00_224_1/block_7_project_1/convolution/merged_input", "shape": [1, 1, 384, 64], "dtype": "float32"}, {"name": "StatefulPartitionedCall/inference_model_1/mobilenetv2_1.00_224_1/block_8_expand_1/convolution/merged_input", "shape": [1, 1, 64, 384], "dtype": "float32"}, {"name": "StatefulPartitionedCall/inference_model_1/mobilenetv2_1.00_224_1/block_8_expand_BN_1/batchnorm/sub", "shape": [384], "dtype": "float32"}, {"name": "StatefulPartitionedCall/inference_model_1/mobilenetv2_1.00_224_1/block_8_depthwise_1/depthwise/ReadVariableOp", "shape": [3, 3, 384, 1], "dtype": "float32"}, {"name": "StatefulPartitionedCall/inference_model_1/mobilenetv2_1.00_224_1/block_8_depthwise_BN_1/batchnorm/mul", "shape": [384], "dtype": "float32"}, {"name": "StatefulPartitionedCall/inference_model_1/mobilenetv2_1.00_224_1/block_8_depthwise_BN_1/batchnorm/sub", "shape": [384], "dtype": "float32"}, {"name": "StatefulPartitionedCall/inference_model_1/mobilenetv2_1.00_224_1/block_8_project_1/convolution/merged_input", "shape": [1, 1, 384, 64], "dtype": "float32"}, {"name": "StatefulPartitionedCall/inference_model_1/mobilenetv2_1.00_224_1/block_9_expand_1/convolution/merged_input", "shape": [1, 1, 64, 384], "dtype": "float32"}, {"name": "StatefulPartitionedCall/inference_model_1/mobilenetv2_1.00_224_1/block_9_expand_BN_1/batchnorm/sub", "shape": [384], "dtype": "float32"}, {"name": "StatefulPartitionedCall/inference_model_1/mobilenetv2_1.00_224_1/block_9_depthwise_1/depthwise/ReadVariableOp", "shape": [3, 3, 384, 1], "dtype": "float32"}, {"name": "StatefulPartitionedCall/inference_model_1/mobilenetv2_1.00_224_1/block_9_depthwise_BN_1/batchnorm/mul", "shape": [384], "dtype": "float32"}, {"name": "StatefulPartitionedCall/inference_model_1/mobilenetv2_1.00_224_1/block_9_depthwise_BN_1/batchnorm/sub", "shape": [384], "dtype": "float32"}, {"name": "StatefulPartitionedCall/inference_model_1/mobilenetv2_1.00_224_1/block_9_project_1/convolution/merged_input", "shape": [1, 1, 384, 64], "dtype": "float32"}, {"name": "StatefulPartitionedCall/inference_model_1/mobilenetv2_1.00_224_1/block_10_expand_1/convolution/merged_input", "shape": [1, 1, 64, 384], "dtype": "float32"}, {"name": "StatefulPartitionedCall/inference_model_1/mobilenetv2_1.00_224_1/block_10_expand_BN_1/batchnorm/sub", "shape": [384], "dtype": "float32"}, {"name": "StatefulPartitionedCall/inference_model_1/mobilenetv2_1.00_224_1/block_10_depthwise_1/depthwise/ReadVariableOp", "shape": [3, 3, 384, 1], "dtype": "float32"}, {"name": "StatefulPartitionedCall/inference_model_1/mobilenetv2_1.00_224_1/block_10_depthwise_BN_1/batchnorm/mul", "shape": [384], "dtype": "float32"}, {"name": "StatefulPartitionedCall/inference_model_1/mobilenetv2_1.00_224_1/block_10_depthwise_BN_1/batchnorm/sub", "shape": [384], "dtype": "float32"}, {"name": "StatefulPartitionedCall/inference_model_1/mobilenetv2_1.00_224_1/block_10_project_1/convolution/merged_input", "shape": [1, 1, 384, 96], "dtype": "float32"}, {"name": "StatefulPartitionedCall/inference_model_1/mobilenetv2_1.00_224_1/block_10_project_BN_1/batchnorm/sub", "shape": [96], "dtype": "float32"}, {"name": "StatefulPartitionedCall/inference_model_1/mobilenetv2_1.00_224_1/block_11_expand_1/convolution/merged_input", "shape": [1, 1, 96, 576], "dtype": "float32"}, {"name": "StatefulPartitionedCall/inference_model_1/mobilenetv2_1.00_224_1/block_11_expand_BN_1/batchnorm/sub", "shape": [576], "dtype": "float32"}, {"name": "StatefulPartitionedCall/inference_model_1/mobilenetv2_1.00_224_1/block_11_depthwise_1/depthwise/ReadVariableOp", "shape": [3, 3, 576, 1], "dtype": "float32"}, {"name": "StatefulPartitionedCall/inference_model_1/mobilenetv2_1.00_224_1/block_11_depthwise_BN_1/batchnorm/mul", "shape": [576], "dtype": "float32"}, {"name": "StatefulPartitionedCall/inference_model_1/mobilenetv2_1.00_224_1/block_11_depthwise_BN_1/batchnorm/sub", "shape": [576], "dtype": "float32"}, {"name": "StatefulPartitionedCall/inference_model_1/mobilenetv2_1.00_224_1/block_11_project_1/convolution/merged_input", "shape": [1, 1, 576, 96], "dtype": "float32"}, {"name": "StatefulPartitionedCall/inference_model_1/mobilenetv2_1.00_224_1/block_12_expand_1/convolution/merged_input", "shape": [1, 1, 96, 576], "dtype": "float32"}, {"name": "StatefulPartitionedCall/inference_model_1/mobilenetv2_1.00_224_1/block_12_expand_BN_1/batchnorm/sub", "shape": [576], "dtype": "float32"}, {"name": "StatefulPartitionedCall/inference_model_1/mobilenetv2_1.00_224_1/block_12_depthwise_1/depthwise/ReadVariableOp", "shape": [3, 3, 576, 1], "dtype": "float32"}, {"name": "StatefulPartitionedCall/inference_model_1/mobilenetv2_1.00_224_1/block_12_depthwise_BN_1/batchnorm/mul", "shape": [576], "dtype": "float32"}, {"name": "StatefulPartitionedCall/inference_model_1/mobilenetv2_1.00_224_1/block_12_depthwise_BN_1/batchnorm/sub", "shape": [576], "dtype": "float32"}, {"name": "StatefulPartitionedCall/inference_model_1/mobilenetv2_1.00_224_1/block_12_project_1/convolution/merged_input", "shape": [1, 1, 576, 96], "dtype": "float32"}, {"name": "StatefulPartitionedCall/inference_model_1/mobilenetv2_1.00_224_1/block_13_expand_1/convolution/merged_input", "shape": [1, 1, 96, 576], "dtype": "float32"}, {"name": "StatefulPartitionedCall/inference_model_1/mobilenetv2_1.00_224_1/block_13_expand_BN_1/batchnorm/sub", "shape": [576], "dtype": "float32"}, {"name": "StatefulPartitionedCall/inference_model_1/mobilenetv2_1.00_224_1/block_13_pad_1/Const", "shape": [4, 2], "dtype": "int32"}, {"name": "StatefulPartitionedCall/inference_model_1/mobilenetv2_1.00_224_1/block_13_depthwise_1/depthwise/ReadVariableOp", "shape": [3, 3, 576, 1], "dtype": "float32"}, {"name": "StatefulPartitionedCall/inference_model_1/mobilenetv2_1.00_224_1/block_13_depthwise_BN_1/batchnorm/mul", "shape": [576], "dtype": "float32"}, {"name": "StatefulPartitionedCall/inference_model_1/mobilenetv2_1.00_224_1/block_13_depthwise_BN_1/batchnorm/sub", "shape": [576], "dtype": "float32"}, {"name": "StatefulPartitionedCall/inference_model_1/mobilenetv2_1.00_224_1/block_13_project_1/convolution/merged_input", "shape": [1, 1, 576, 160], "dtype": "float32"}, {"name": "StatefulPartitionedCall/inference_model_1/mobilenetv2_1.00_224_1/block_13_project_BN_1/batchnorm/sub", "shape": [160], "dtype": "float32"}, {"name": "StatefulPartitionedCall/inference_model_1/mobilenetv2_1.00_224_1/block_14_expand_1/convolution/merged_input", "shape": [1, 1, 160, 960], "dtype": "float32"}, {"name": "StatefulPartitionedCall/inference_model_1/mobilenetv2_1.00_224_1/block_14_expand_BN_1/batchnorm/sub", "shape": [960], "dtype": "float32"}, {"name": "StatefulPartitionedCall/inference_model_1/mobilenetv2_1.00_224_1/block_14_depthwise_1/depthwise/ReadVariableOp", "shape": [3, 3, 960, 1], "dtype": "float32"}, {"name": "StatefulPartitionedCall/inference_model_1/mobilenetv2_1.00_224_1/block_14_depthwise_BN_1/batchnorm/mul", "shape": [960], "dtype": "float32"}, {"name": "StatefulPartitionedCall/inference_model_1/mobilenetv2_1.00_224_1/block_14_depthwise_BN_1/batchnorm/sub", "shape": [960], "dtype": "float32"}, {"name": "StatefulPartitionedCall/inference_model_1/mobilenetv2_1.00_224_1/block_14_project_1/convolution/merged_input", "shape": [1, 1, 960, 160], "dtype": "float32"}, {"name": "StatefulPartitionedCall/inference_model_1/mobilenetv2_1.00_224_1/block_15_expand_1/convolution/merged_input", "shape": [1, 1, 160, 960], "dtype": "float32"}, {"name": "StatefulPartitionedCall/inference_model_1/mobilenetv2_1.00_224_1/block_15_expand_BN_1/batchnorm/sub", "shape": [960], "dtype": "float32"}, {"name": "StatefulPartitionedCall/inference_model_1/mobilenetv2_1.00_224_1/block_15_depthwise_1/depthwise/ReadVariableOp", "shape": [3, 3, 960, 1], "dtype": "float32"}, {"name": "StatefulPartitionedCall/inference_model_1/mobilenetv2_1.00_224_1/block_15_depthwise_BN_1/batchnorm/mul", "shape": [960], "dtype": "float32"}, {"name": "StatefulPartitionedCall/inference_model_1/mobilenetv2_1.00_224_1/block_15_depthwise_BN_1/batchnorm/sub", "shape": [960], "dtype": "float32"}, {"name": "StatefulPartitionedCall/inference_model_1/mobilenetv2_1.00_224_1/block_15_project_1/convolution/merged_input", "shape": [1, 1, 960, 160], "dtype": "float32"}, {"name": "StatefulPartitionedCall/inference_model_1/mobilenetv2_1.00_224_1/block_16_expand_1/convolution/merged_input", "shape": [1, 1, 160, 960], "dtype": "float32"}, {"name": "StatefulPartitionedCall/inference_model_1/mobilenetv2_1.00_224_1/block_16_expand_BN_1/batchnorm/sub", "shape": [960], "dtype": "float32"}, {"name": "StatefulPartitionedCall/inference_model_1/mobilenetv2_1.00_224_1/block_16_depthwise_1/depthwise/ReadVariableOp", "shape": [3, 3, 960, 1], "dtype": "float32"}, {"name": "StatefulPartitionedCall/inference_model_1/mobilenetv2_1.00_224_1/block_16_depthwise_BN_1/batchnorm/mul", "shape": [960], "dtype": "float32"}, {"name": "StatefulPartitionedCall/inference_model_1/mobilenetv2_1.00_224_1/block_16_depthwise_BN_1/batchnorm/sub", "shape": [960], "dtype": "float32"}, {"name": "StatefulPartitionedCall/inference_model_1/mobilenetv2_1.00_224_1/block_16_project_1/convolution/merged_input", "shape": [1, 1, 960, 320], "dtype": "float32"}, {"name": "StatefulPartitionedCall/inference_model_1/mobilenetv2_1.00_224_1/block_16_project_BN_1/batchnorm/sub", "shape": [320], "dtype": "float32"}, {"name": "StatefulPartitionedCall/inference_model_1/mobilenetv2_1.00_224_1/Conv_1_1/convolution/merged_input", "shape": [1, 1, 320, 1280], "dtype": "float32"}, {"name": "StatefulPartitionedCall/inference_model_1/mobilenetv2_1.00_224_1/Conv_1_bn_1/batchnorm/sub", "shape": [1280], "dtype": "float32"}, {"name": "StatefulPartitionedCall/inference_model_1/global_average_pooling2d_1/Mean/reduction_indices", "shape": [2], "dtype": "int32"}, {"name": "StatefulPartitionedCall/inference_model_1/dense_1/Cast/ReadVariableOp", "shape": [1280, 151], "dtype": "float32"}, {"name": "StatefulPartitionedCall/inference_model_1/dense_1/BiasAdd/ReadVariableOp", "shape": [151], "dtype": "float32"}]}]}